HW3/pushing_multi_step_residual_dynamics_model.pt (torch, 47087 bytes, 6 tensors)

layers.0.weight f4 [100, 6]
0.22986932 0.14235967 0.008399805 -0.21892178 -0.36515835 -0.27141798 -0.08116004 -0.41797093
-0.27931976 -0.048492145 0.14674482 -0.3336371 0.03081877 0.20792946 0.1004692 -0.34317964
-0.29068613 -0.09684726 0.27520114 0.23399083 -0.04133872 -0.0015986549 0.101690784 0.04602631
-0.29535136 -0.3475853 0.29511818 -0.16464901 0.22245325 0.16415514 0.1725611 -0.33391997
0.3044766 0.35284278 -0.09393571 0.32608217 -0.4003449 0.15750733 -0.31087923 0.23240118
0.29578814 0.046432666 -0.16655564 -0.17407459 0.16095997 0.17917614 0.3144426 -0.15117548
-0.15929179 0.095526956 -0.3295611 -0.36094263 -0.34972364 0.09982637 -0.004750846 -0.24400678
0.16619796 -0.3494769 0.17665365 -0.17485636 0.329659 -0.140786 -0.13300645 -0.37602732
0.18773668 -0.3214341 0.14284098 0.36355066 0.16880105 0.028256902 -0.36433408 -0.39084297
-0.02198146 -0.34742543 -0.4184982 0.0308957 -0.38362926 0.088357426 -0.13909614 -0.16486649
-0.16583538 -0.06769683 -0.33197215 0.12158209 0.21893337 -0.3267325 -0.0028778226 0.14961521
-0.074449316 0.2854053 -0.3151065 0.051112644 0.013798249 -0.23978305 -0.29815528 -0.23993872
0.27585575 -0.34483615 -0.22618584 -0.3187906 0.005142937 0.062737904 -0.092545524 0.33148953
0.37053227 -0.19247487 -0.19035068 -0.24937843 -0.16209564 -0.14814232 -0.056231156 -0.182319
-0.014680495 0.024812719 -0.006799423 0.12894724 -0.40050825 0.26347253 -0.27330595 -0.036466014
-0.32991454 -0.024202824 0.20035574 0.40613204 0.43014562 -0.09680362 -0.3276975 0.3108362
0.06361211 0.27951938 0.109769575 0.36862397 0.38935265 -0.28596383 -0.5743835 0.27186713
0.082613505 0.048450958 0.39377913 -0.35799676 0.39066982 -0.29120976 -0.34786895 -0.27954513
-0.07924289 -0.33025277 -0.31002203 0.09308401 -0.17064255 0.38384432 0.2994327 -0.29031956
-0.01713796 0.23526303 0.460044 0.1681164 0.3763394 -0.29060856 0.24884461 0.38618022
0.14782692 -0.16622758 0.011727716 0.32825598 -0.010976609 -0.3799835 -0.325216 0.33647913
-0.15506828 -0.24853049 0.09042092 -0.07485144 0.05008595 0.32932776 -0.07694017 -0.13280846
0.073840365 -0.0860942 0.23234953 -0.32744825 -0.35080117 -0.29707262 0.14497721 -0.13663183
0.13951655 0.34721228 -0.12703043 0.22963196 -0.21264033 0.09148978 0.23254882 0.41186714
-0.17770538 -0.33880153 0.14835203 0.10101038 0.14268388 -0.38070473 -0.13717641 0.049578603
0.37643448 0.057465725 -0.31486022 0.117786214 0.07475204 0.32551196 -0.095386826 -0.14385702
0.27244776 0.41402736 -0.39290184 -0.108813085 -0.004530816 0.12539868 0.20152897 0.27249756
-0.30101427 -0.09681062 0.056084897 -0.19622394 -0.30328152 0.38217032 0.21154226 -0.12291193
0.13381036 0.26934856 -0.064668216 0.39958128 0.10687557 0.05317112 0.15968691 -0.31999183
-0.13116598 0.007997387 -0.05465204 0.06882942 0.26845953 0.1515037 0.2835845 -0.22592364
-0.34970883 0.3091841 0.16115564 0.4040326 -0.05675462 -0.30178756 0.27157155 -0.16261494
0.34029385 -0.35367215 -0.0069787446 0.18502621 0.24368887 -0.26687154 0.00214534 -0.09814914
00000000: dd62 6b3e bcc6 113e 569f 093c 082d 60be
00000010: 09f6 babe 4cf7 8abe 3c37 a6bd 4900 d6be
00000020: 0003 8fbe b39f 46bd 4644 163e 7bd2 aabe
00000030: a577 fc3c 76eb 543e ccc2 cd3d 3eb5 afbe
00000040: d0d4 94be db57 c6bd 2ae7 8c3e 4b9b 6f3e
00000050: ca52 29bd f589 d1ba 4243 d03d 1686 3c3d
00000060: 4b38 97be b3f6 b1be bb19 973e c099 28be
00000070: c9ca 633e 4918 283e dbb3 303e 8ff7 aabe
00000080: 5be4 9b3e cfa7 b43e 5e61 c0bd 3ef4 a63e
00000090: 02fa ccbe 9a49 213e 902b 9fbe 93fa 6d3e
000000a0: 8b71 973e 2e30 3e3d 908d 2abe 9c40 32be
000000b0: b1d2 243e f379 373e 9ffe a03e bfcd 1abe
000000c0: 631d 23be a3a3 c33d 3cbc a8be 79cd b8be
000000d0: fa0e b3be c571 cc3d fcac 9bbb eadc 79be
000000e0: cc2f 2a3e a3ee b2be b2e4 343e 8c0d 33be
000000f0: 10c9 a83e 352a 10be d832 08be a786 c0be
00000100: 0b3e 403e 0393 a4be e844 123e 5023 ba3e
00000110: 2fda 2c3e 057b e73c ff89 babe 921c c8be
00000120: 7612 b4bc bfe1 b1be 6545 d6be fb18 fd3c
00000130: 0e6b c4be bdf4 b43d 386f 0ebe c3d2 28be
00000140: c0d0 29be a3a4 8abd 41f8 a9be 0800 f93d
00000150: 1230 603e 7b49 a7be da99 3cbb bb34 193e
00000160: e278 98bd a520 923e a455 a1be 7e5b 513d
00000170: 0d12 623c b089 75be cfa7 98be 7fb2 75be
00000180: f73c 8d3e 5d8e b0be 439d 67be 8638 a3be
00000190: 1586 a83b bb7c 803d 8288 bdbd ffb8 a93e
000001a0: 68b6 bd3e 2218 45be 4aeb 42be 0f5d 7fbe
000001b0: 66fc 25be 9fb2 17be a452 66bd d5b1 3abe
000001c0: 7586 70bc 0b44 cb3c b2cd debb bf0a 043e
000001d0: 6b0f cdbe dfe5 863e c2ee 8bbe 635d 15bd
000001e0: 8fea a8be 0045 c6bc 0e2a 4d3e 8af0 cf3e
000001f0: 0c3c dc3e fa40 c6bd f7c7 a7be ec25 9f3e
00000200: 1147 823d 2a1d 8f3e dfce e03d 48bc bc3e
00000210: 3b59 c73e da69 92be cc0a 13bf 2b32 8b3e
00000220: 4531 a93d 8374 463d 6b9d c93e 5a4b b7be
00000230: e005 c83e 7219 95be e11b b2be 8a20 8fbe
00000240: 194a a2bd e416 a9be 35bb 9ebe d4a2 be3d
00000250: ecbc 2ebe 3e87 c43e 3e4f 993e c4a4 94be
00000260: e864 8cbc cbe8 703e e38a eb3e b526 2c3e
00000270: 8faf c03e a5ca 94be 1fd1 7e3e 6ab9 c53e
00000280: f15f 173e 9037 2abe 9b25 403c 2b11 a83e
00000290: 3cd7 33bc 338d c2be b682 a6be fe46 ac3e
000002a0: 38ca 1ebe c77e 7ebe 9a2e b93d b64b 99bd
000002b0: ed26 4d3d a69d a83e cf92 9dbd f1fe 07be
000002c0: 9e39 973d 2852 b0bd 09ed 6d3e 4ca7 a7be
000002d0: 369c b3be e719 98be e874 143e 37e9 0bbe
000002e0: 6ddd 0e3e cfc5 b13e 4414 02be a424 6b3e
000002f0: 63be 59be fe5e bb3d 4721 6e3e 40e0 d23e
00000300: 66f8 35be 6577 adbe 98e9 173e 88de ce3d
00000310: b91b 123e bbeb c2be f977 0cbe ef12 4b3d
00000320: 05bc c03e 2e61 6b3d 5c35 a1be e639 f13d
00000330: 9917 993d 81a9 a63e 2b5a c3bd 414f 13be
00000340: 467e 8b3e 65fb d33e 6e2a c9be 65d9 debd
00000350: 3d77 94bb 8368 003e 9c5d 4e3e cd84 8b3e
00000360: 8b1e 9abe a544 c6bd 47b9 653d eeee 48be
00000370: b747 9bbe d4ab c33e 899e 583e 40b9 fbbd
00000380: 9505 093e 0ee8 893e c570 84bd eb95 cc3e
00000390: 94e1 da3d f6c9 593d f784 233e f8d5 a3be
000003a0: 6050 06be 7907 033c d1da 5fbd 70f6 8c3d
000003b0: 8773 893e c923 1b3e fd31 913e 8758 67be
000003c0: 090d b3be 614d 9e3e fc05 253e 5cdd ce3e
000003d0: 8877 68bd e683 9abe 6d0b 8b3e 8884 26be
000003e0: ff3a ae3e 8414 b5be f4ad e4bb 8377 3d3e
000003f0: 9389 793e 63a3 88be d598 0c3b 6b02 c9bd

layers.0.bias f4 [100]
0.39786044 0.24856478 0.17790075 -0.18216394 0.37793222 -0.25670362 -0.22512712 0.004089843
-0.0356862 0.21595873 -0.03678116 0.2529803 -0.40063587 0.26785123 -0.16486064 0.16953717
-0.405457 -0.23714608 -0.37511343 0.3937904 -0.17833018 0.21511723 -0.03953497 -0.40594923
0.152355 0.00014646027 -0.15132639 0.06371355 0.08416777 -0.028246032 -0.11621822 -0.17741694
-0.37066555 0.3670185 0.0666582 -0.18036649 -0.45935813 -0.06291525 0.3796127 -0.25715613
0.06507383 0.39172682 -0.109897695 -0.019581657 -0.32847363 -0.18006694 -0.05674881 -0.33459133
-0.23354325 0.11817152 0.11782552 -0.155986 -0.034661863 0.07544283 -0.08485553 0.04101614
-0.2804681 -0.31867576 0.029959163 0.07333372 0.095803306 -0.03079871 -0.17928144 0.41970587
-0.24974017 0.12418911 -0.049499724 -0.1755587 -0.22010113 0.24153168 0.33924386 0.22014177
0.10574989 0.11631875 0.004764947 -0.29106677 0.057209827 0.3952663 0.3890484 -0.34236676
-0.24846572 -0.37791625 0.14205152 0.20764239 -0.25058594 -0.104717 -0.25932974 -0.24940667
0.39630595 -0.08929999 0.26822427 -0.29032424 -0.22913377 -0.3714258 -0.32542744 0.28017235
-0.1462306 -0.20151617 0.34957403 -0.16942653
00000000: 5db4 cb3e c487 7e3e 9d2b 363e 2f89 3abe
00000010: 5580 c13e a86e 83be b987 66be 1704 863b
00000020: b12b 12bd 4924 5d3e d7a7 16bd a286 813e
00000030: 2520 cdbe cc23 893e 3ad1 28be 279b 2d3e
00000040: 0f98 cfbe 6cd6 72be de0e c0be e59e c93e
00000050: 309c 36be b147 5c3e 6cef 21bd 94d8 cfbe
00000060: f302 1c3e 2193 1939 4ef5 1abe 407c 823d
00000070: 2760 ac3d 3964 e7bc d103 eebd c9ac 35be
00000080: e0c7 bdbe d9e9 bb3e 1884 883d feb1 38be
00000090: fd30 ebbe b6d9 80bd 995c c23e f8a9 83be
000000a0: 6e45 853d 6b90 c83e 0b12 e1bd b669 a0bc
000000b0: b22d a8be 7863 38be 7171 68bd 8e4f abbe
000000c0: f625 6fbe e903 f23d 824e f13d cbba 1fbe
000000d0: 99f9 0dbd c581 9a3d bcc8 adbd 8a00 283d
000000e0: 8499 8fbe 7829 a3be eb6c f53c fd2f 963d
000000f0: 8634 c43d 944d fcbc 8e95 37be b0e3 d63e
00000100: e3bb 7fbe dc56 fe3d 39c0 4abd a9c5 33be
00000110: 3162 61be 1554 773e 5fb1 ad3e d86c 613e
00000120: 6693 d83d 8638 ee3d 4623 9c3b b406 95be
00000130: da54 6a3d 5860 ca3e 5a31 c73e b24a afbe
00000140: cc6d 7ebe 3d7e c1be f475 113e 35a0 543e
00000150: cd4c 80be de75 d6bd dec6 84be 7664 7fbe
00000160: 9de8 ca3e eae2 b6bd b154 893e 61a5 94be
00000170: 0ba2 6abe 862b bebe 6d9e a6be c072 8f3e
00000180: 79bd 15be 415a 4ebe 5efb b23e 267e 2dbe

layers.2.weight f4 [100, 100]
-0.074924044 -0.019916391 -0.024433179 -0.06561252 0.0447895 -0.063271634 -0.07095434 -0.103211515
0.03702981 -0.08903537 -0.044237826 -0.06497963 -0.08339027 -0.037985787 0.024518441 0.09240294
0.081702195 -0.033035878 -0.09670261 -0.044067364 0.05319874 -0.03402815 0.022288298 -0.0046790573
-0.09732891 -0.02435272 -0.008542331 -0.04657307 0.043612882 -0.029016888 0.033419773 0.03263409
0.013929713 0.026963511 -0.0719477 -0.051942732 -0.022973156 0.0229188 0.08652423 0.027444849
-0.08064819 -0.008030577 0.025143035 0.02415408 -0.06560425 0.0011418104 0.02090739 -0.015708739
-0.048233654 -0.07560526 0.092306264 0.09161939 -0.10203155 -0.06828058 -0.09989367 -0.09614801
0.051149588 0.049632907 0.022631124 -0.0535487 0.080843195 0.052730642 -0.027108962 0.092790276
-0.08978554 -0.04710929 0.032278113 -0.079437695 -0.0088408245 -0.0779815 0.06730226 -0.08665726
-0.084741525 -0.028268708 0.05567984 -0.08505752 -0.013790923 -0.03608023 0.037918743 0.061979342
-0.0031541826 0.06988993 -0.03511381 -0.017260447 -0.021060424 -0.092265315 -0.08692493 -0.08432984
0.061786324 -0.102586046 -0.10502855 0.043629695 0.07940391 -0.04663886 0.06807039 -0.06821568
0.068501905 0.080023795 -0.027606593 -0.072596334 -0.07122082 -0.044362627 -0.11178367 -0.044924166
-0.040487796 0.06266846 -0.06808244 -0.008590467 0.058921415 0.059938908 -0.17583394 -0.06080567
0.014281008 -0.08577252 0.10815646 -0.041047815 0.21636137 0.029763693 0.040088903 -0.027420932
-0.017359702 0.030055521 -0.19311096 0.12925863 0.15847875 0.09786699 0.06465288 0.054463565
0.06773235 0.011333769 0.0042734607 -0.034230478 0.06435356 0.06583336 0.04729035 -0.26225105
0.04995595 0.04596684 -0.018841498 0.037033103 -0.055324666 -0.005740428 0.029437104 0.0052817888
-0.1803299 -0.072903775 -0.1784672 0.19678658 0.21401618 0.060696892 -0.019608226 -0.38247696
-0.025946705 0.16135308 0.034329426 -0.03772891 0.08899734 0.08654451 -0.26685154 -0.062223274
0.021774322 0.104474775 -0.037395746 -0.0115206055 0.07762991 0.07911544 -0.010866118 -0.13386852
-0.12887697 0.053078562 -0.048696604 -0.12841755 0.029874645 0.035635244 -0.06342874 -0.0051324605
0.039176345 -0.011502617 -0.038998242 -0.023648141 -0.001444769 -0.028397767 0.093884274 0.12482777
-0.029957779 -0.007211357 0.071721606 -0.48372385 0.024499577 0.012126531 0.059110392 0.04199898
-0.009821004 0.052062567 0.047169138 0.006628645 -0.023094106 0.037117515 0.06330532 0.081672415
0.09193078 -0.10309038 0.0917379 -0.07962353 0.052421574 -0.057718173 -0.14510818 0.2027567
-0.08999105 0.039541148 -0.08262678 -0.15034845 -0.26777777 0.07116641 -0.019047432 -0.04421342
0.23102897 -0.18867625 0.032382023 -0.022366837 0.1784383 -0.055140514 0.59472007 -0.08833336
-0.0044207554 -0.12612407 -0.17932792 -0.020257773 0.0763585 -0.10242971 -0.12502629 -0.19776362
0.09669303 -0.045406807 0.07651393 -0.14258425 -0.41983107 0.102545 -0.027597116 0.13386959
-0.112666175 0.05430911 0.07952381 -0.0055537354 0.12273069 0.095760606 0.0815386 -0.048419904
-0.33322427 -0.09493373 0.083625846 -0.28276446 0.0024192345 -0.68067116 0.03138092 0.033157025
00000000: c771 99bd b327 a3bc 1728 c8bc db5f 86bd
00000010: 3275 373d 8f94 81bd 8250 91bd 8f60 d3bd
00000020: 92ac 173d 2d58 b6bd b932 35bd 0a14 85bd
00000030: 85c8 aabd fc96 1bbd e6da c83c c13d bd3d
00000040: 7b53 a73d a150 07bd 050c c6bd fb7f 34bd
00000050: ece6 593d 1a61 0bbd f395 b63c c752 99bb
00000060: 6154 c7bd 5b7f c7bc 22f5 0bbc 67c3 3ebd
00000070: 6ca3 323d d3b4 edbc 2ce3 083d 53ab 053d
00000080: 7339 643c 95e2 dc3c 5159 93bd e7c1 54bd
00000090: 3332 bcbc 35c0 bb3c 9e33 b13d 05d4 e03c
000000a0: e12a a5bd ae92 03bc c4f8 cd3c c7de c53c
000000b0: 855b 86bd cda8 953a fa45 ab3c 9daf 80bc
000000c0: a790 45bd eed6 9abd 110b bd3d f2a2 bb3d
000000d0: ebf5 d0bd b0d6 8bbd 0d95 ccbd 3fe9 c4bd
000000e0: 3b82 513d e04b 4b3d e864 b93c e255 5bbd
000000f0: 1e91 a53d 16fc 573d 9d13 debc d408 be3d
00000100: 7be1 b7bd acf5 40bd 0e36 043d 3bb0 a2bd
00000110: 1bd9 10bc c4b4 9fbd c4d5 893d 5d79 b1bd
00000120: f78c adbd c793 e7bc 8b10 643d a332 aebd
00000130: 53f3 61bc ddc8 13bd af50 1b3d 0dde 7d3d
00000140: 67b6 4ebb 7422 8f3d 80d3 0fbd c865 8dbc
00000150: e986 acbc 99f5 bcbd b305 b2bd 20b5 acbd
00000160: a813 7d3d a218 d2bd 3519 d7bd 0db5 323d
00000170: 849e a23d 6408 3fbd 7d68 8b3d aab4 8bbd
00000180: ba4a 8c3d 84e3 a33d 3927 e2bc 63ad 94bd
00000190: 39dc 91bd 96b5 35bd d6ee e4bd 6702 38bd
000001a0: 88d6 25bd 5258 803d ce6e 8bbd 08bf 0cbc
000001b0: 9557 713d 8082 753d d00d 34be 5e0f 79bd
000001c0: e4fa 693c 81a9 afbd 2281 dd3d c121 28bd
000001d0: d68d 5d3e fdd2 f33c 4334 243d dda1 e0bc
000001e0: ef35 8ebc ff36 f63c e1be 45be 605c 043e
000001f0: 4148 223e 7d6e c83d bb68 843d 3015 5f3d
00000200: 42b7 8a3d 46b1 393c 6308 8c3b 4235 0cbd
00000210: cdcb 833d a4d3 863d 87b3 413d c545 86be
00000220: 9c9e 4c3d ba47 3c3d 7c59 9abc 06b0 173d
00000230: 1e9c 62bd 331a bcbb 1526 f13c db12 ad3b
00000240: 67a8 38be 934e 95bd 1bc0 36be 6c82 493e
00000250: 0f27 5b3e 4e9d 783d 6ea1 a0bc 05d4 c3be
00000260: 2f8e d4bc be39 253e 039d 0c3d a189 1abd
00000270: 3d44 b63d 403e b13d c4a0 88be d5dd 7ebd
00000280: 1060 b23c dff6 d53d 482c 19bd ecc0 3cbc
00000290: 6efc 9e3d 4707 a23d cd07 32bc d414 09be
000002a0: 53f8 03be e868 593d 1776 47bd e47f 03be
000002b0: acbb f43c 43f6 113d ede6 81bd 332e a8bb
000002c0: 6077 203d 7975 3cbc 9fbc 1fbd bfb9 c1bc
000002d0: 675e bdba 6fa2 e8bc 6646 c03d b4a5 ff3d
000002e0: 046a f5bc 3f4d ecbb c7e2 923d a7aa f7be
000002f0: 56b3 c83c 5cae 463c bd1d 723d 1f07 2c3d
00000300: 47e8 20bc 8f3f 553d 6d34 413d 1b35 d93b
00000310: da2f bdbc 8908 183d 38a6 813d de43 a73d
00000320: 3446 bc3d 0d21 d3bd 15e1 bb3d a911 a3bd
00000330: 01b8 563d e469 6cbd 3d97 14be 749f 4f3e
00000340: 3a4d b8bd e6f5 213d 3b38 a9bd f2f4 19be
00000350: 2b1a 89be b2bf 913d 5c09 9cbc 2219 35bd
00000360: dc92 6c3e 5934 41be 03a3 043d a83a b7bc
00000370: 88b8 363e 05db 61bd 933f 183f 1fe8 b4bd
00000380: fcdb 90bb ab26 01be bda1 37be a1f3 a5bc
00000390: d861 9c3d abc6 d1bd e406 00be 8c82 4abe
000003a0: ff06 c63d 7dfc 39bd 56b3 9c3d 9b01 12be
000003b0: 19f4 d6be 1d03 d23d 5913 e2bc 1c15 093e
000003c0: 86bd e6bd 3b73 5e3d 61dd a23d 1cfc b5bb
000003d0: 3a5a fb3d 231e c43d b6fd a63d f353 46bd
000003e0: 5f9c aabe 9e6c c2bd 0744 ab3d 81c6 90be
000003f0: 058c 1e3b 7740 2ebf 4889 003d a9cf 073d

layers.2.bias f4 [100]
0.021871557 -0.04592675 0.062147852 0.07067639 0.005380753 0.0034613288 0.018623399 0.014959872
0.0893827 0.0031160824 0.020031583 0.1035372 0.086095385 0.0339897 0.05664103 -0.01030041
0.08020981 -0.008366344 0.0780141 0.032294273 -0.07801567 0.0140711535 -0.10598067 0.06933967
0.010462027 0.05429269 0.0017041834 0.106724046 -0.08081932 0.040280133 -0.05394582 0.0907029
0.051500596 -0.075746164 0.07885757 -0.03973637 0.03882037 -0.10358905 0.06963251 0.03786141
-0.047499705 0.07792924 0.0967969 -0.06859731 0.016125202 -0.026864523 0.008791379 -0.050201528
-0.045276243 -0.049923886 0.024920091 0.0052622124 0.0024359012 0.04825156 0.050956517 0.08140832
0.018074349 0.011902836 0.07923768 0.070269786 0.025686227 -0.08928926 0.0045575616 0.031375345
-0.07649676 0.08001489 -0.055231597 0.065084346 0.061871286 -0.08416581 -0.08376231 -0.03228713
0.00437484 0.05173308 -0.039238237 -0.019024057 -0.06729238 0.10802246 0.0536615 -0.059562176
-0.0196429 0.068607666 -0.010250009 0.0659543 -0.047908764 -0.020634312 0.004714085 0.10792198
0.013549306 -0.06934102 -0.058966722 -0.057885896 -0.055639982 0.003094329 -0.07921165 0.071948916
0.07295867 0.03733032 -0.02022345 0.006836286
00000000: fb2b b33c b01d 3cbd bf8e 7e3d c8be 903d
00000010: 0751 b03b 76d7 623b 1990 983c 401a 753c
00000020: 470e b73d 3037 4c3b 4619 a43c 500b d43d
00000030: c752 b03d c938 0b3d 6d00 683d 0dc3 28bc
00000040: 0a45 a43d fd12 09bc dbc5 9f3d 0047 043d
00000050: aec6 9fbd b28a 663c 650c d9bd f501 8e3d
00000060: ec68 2b3c 0362 5e3d e85e df3a 2392 da3d
00000070: 9a84 a5bd c8fc 243d 4bf6 5cbd 71c2 b93d
00000080: 4af2 523d ce20 9bbd 1480 a13d 9bc2 22bd
00000090: 1c02 1f3d 7f26 d4bd 7d9b 8e3d 9114 1b3d
000000a0: 0d8f 42bd 5e99 9f3d 743d c63d bf7c 8cbd
000000b0: 0019 843c fd12 dcbc b709 103c 1ea0 4dbd
000000c0: 9573 39bd fd7c 4cbd 3825 cc3c a36e ac3b
000000d0: a4a3 1f3b 6ea3 453d c8b7 503d 68b9 a63d
000000e0: a810 943c 1d04 433c 5d47 a23d 9be9 8f3d
000000f0: ec6b d23c 4add b6bd 9957 953b 6f83 003d
00000100: 55aa 9cbd d9de a33d 873a 62bd f14a 853d
00000110: bf6c 7d3d 205f acbd 938b abbd 823f 04bd
00000120: d15a 8f3b 11e6 533d 46b8 20bd 57d8 9bbc
00000130: 96d0 89bd e13a dd3d 29cc 5b3d 78f7 73bd
00000140: 26ea a0bc 2d82 8c3d a7ef 27bc 0c13 873d
00000150: fb3b 44bd 4a09 a9bc 9c78 9a3b 3306 dd3d
00000160: e9fd 5d3c aa02 8ebd 1787 71bd c319 6dbd
00000170: c0e6 63bd 3aca 4a3b b839 a2bd f459 933d
00000180: 5b6b 953d ade7 183d a6ab a5bc ec02 e03b

layers.4.weight f4 [3, 100]
-0.09076806 -0.024739053 0.031133655 -0.062364712 -0.07481048 -0.055284183 -0.027234599 -0.07447907
-0.014522126 0.023957841 -0.044413332 0.08046783 0.061079662 -0.042189382 -0.043716084 -0.041384112
-0.011738742 -0.085661426 0.08222934 0.055386327 -0.0029489442 0.02701217 0.07927761 -0.088931195
0.019755214 0.08904578 0.05138403 0.005230138 0.0794314 0.058766875 -0.08511242 -0.07984805
-0.08781316 0.04779603 0.09446749 -0.06850355 -0.012607358 0.047021925 -0.07274269 -0.039254133
-0.04950258 -0.03786101 0.04687704 0.050860118 0.023229264 0.00664662 0.015228806 0.07022645
-0.023712441 -0.07585674 -0.03707607 0.069207996 -0.012406478 0.0045471373 -0.0239814 -0.07397045
0.012714744 0.07546132 -0.013371192 0.045121502 0.06768108 -0.08920463 -0.012802535 0.0068229954
-0.0413649 0.054183163 0.06825093 -0.09269049 -0.0659335 0.08693435 0.07901572 0.059400737
0.0067136157 0.060582414 0.002055843 0.06123796 0.05809518 0.05608084 -0.0037660366 -0.10410077
0.053432737 -0.010992072 -0.028544206 0.024231821 0.017979406 0.00023672036 -0.097029135 0.01236803
-0.016006187 0.053107876 0.028358648 0.07318318 0.005127338 0.056638658 0.0240458 -0.046600215
0.026437469 0.028390862 0.07348564 -0.0041975714 0.012904956 -0.05825645 -0.001105892 -0.08190649
-0.045251958 -0.04289397 0.009795584 -0.008690065 0.057657912 -0.0422909 0.06791713 -0.050832573
0.014424127 0.013364802 -0.0154056065 -0.052909743 0.08546332 -0.08222945 -0.053216193 0.01684292
-0.019644283 -0.0684013 -0.008522291 -0.08218765 -0.032887973 0.061648447 0.08400938 -0.04347296
-0.08798169 0.06348804 0.029028885 -0.024615422 0.0036251214 -0.029793644 0.0664354 -0.055277973
0.08724361 0.037892908 0.07531872 -0.03315915 0.08689013 -0.047711864 -0.018388426 -0.07846756
-0.045289338 -0.05077974 -0.051816694 -0.059502333 0.04861167 0.08140713 -0.031065984 -0.029115537
-0.052500878 -0.085116886 -0.032544207 0.08647143 -0.08773331 -0.08482671 -0.04207813 -0.047896266
0.0801149 -0.034351286 0.022218587 -0.015282671 -0.007886696 -0.015214755 -0.0269282 0.055583734
0.036311764 0.044355165 -0.015332636 -0.02374209 0.06391688 0.060730714 0.044464782 0.053520985
0.05578163 -0.020992797 0.057246853 0.062494878 0.0889809 -0.059314173 0.053975336 0.06292316
0.032445047 -0.061053287 0.015783876 0.013884739 0.062001016 -0.01622071 -0.071192615 0.06323743
0.05420864 -0.025400454 0.0005785585 0.027128976 -0.06507596 -0.06758865 0.06037619 0.049777146
-0.008690599 -0.24706103 0.4066538 0.1424165 0.22605263 -0.044251725 -0.048990466 -0.10407647
-0.024469955 0.013765369 -0.19022523 0.11878696 0.117764555 0.04767073 0.12591803 0.057290982
0.16763167 0.038546003 -0.17729211 0.08721986 -0.077232026 0.13536863 -0.0029695956 -0.04339774
-0.1536519 -0.3192577 -0.09447613 -0.14579138 -0.088459425 0.011658896 0.16730157 -0.01695757
0.033946324 -0.0010294269 0.042882517 0.26084727 -0.0645039 0.016067237 0.1178153 0.02686518
0.14438577 -0.025453927 -0.056282263 0.0911194 -0.05880226 -0.007624247 0.041450128 0.12303289
0.16585508 0.065314576 0.19104937 -0.024899494 -0.13956535 -0.056178626 -0.06490854 -0.02351569
00000000: 9be4 b9bd 8ea9 cabc 020c ff3c 2472 7fbd
00000010: 3d36 99bd ab71 62bd 181b dfbc 7c88 98bd
00000020: 36ee 6dbc 3c43 c43c c1ea 35bd 51cc a43d
00000030: ab2e 7a3d c6ce 2cbd a30f 33bd 6382 29bd
00000040: da53 40bc 426f afbd db67 a83d c6dc 623d
00000050: 1343 41bb a048 dd3c 4d5c a23d 8f21 b6bd
00000060: b0d5 a13c a25d b63d 1078 523d 9461 ab3b
00000070: eeac a23d 89b5 703d 6c4f aebd 6087 a3bd
00000080: 63d7 b3bd c5c5 433d 2c78 c13d 974b 8cbd
00000090: 188f 4ebc 109a 403d 1ffa 94bd f1c8 20bd
000000a0: 38c3 4abd 2514 1bbd 2402 403d b352 503d
000000b0: 4c4b be3c e4cb d93b 3e82 793c e3d2 8f3d
000000c0: 9840 c2bc c75a 9bbd 14dd 17bd ecbc 8d3d
000000d0: 8a44 4bbc 2700 953b a474 c4bc d27d 97bd
000000e0: 8051 503c 778b 9a3d d812 5bbc 53d1 383d
000000f0: 619c 8a3d ebb0 b6bd b9c1 51bc 6f93 df3b
00000100: 3e6e 29bd 2aef 5d3d 25c7 8b3d 83d4 bdbd
00000110: 2508 87bd a30a b23d fed2 a13d 304e 733d
00000120: e4fd db3b 4425 783d 52bb 063b a8d4 7a3d
00000130: 36f5 6d3d 06b5 653d 9ccf 76bb c932 d5bd
00000140: 49dc 5a3d 1718 34bc 8ad5 e9bc d081 c63c
00000150: 8c49 933c 2338 7839 36b7 c6bd 47a3 4a3c
00000160: 681f 83bc a587 593d 6550 e83c 10e1 953d
00000170: 3b03 a83b f0fd 673d b3fb c43c dedf 3ebd
00000180: 6493 d83c f493 e83c a47f 963d c88b 89bb
00000190: 4f6f 533c 519e 6ebd 94f3 90ba 97be a7bd
000001a0: 1e5a 39bd 96b1 2fbd a87d 203c c660 0ebc
000001b0: b42a 6c3d 3939 2dbd 2318 8b3d d135 50bd
000001c0: 2c53 6c3c 0bf8 5a3c cc67 7cbc e3b7 58bd
000001d0: 6507 af3d ea67 a8bd 39f9 59bd 2afa 893c
000001e0: 0ced a0bc fb15 8cbd 14a1 0bbc 0052 a8bd
000001f0: 8ab5 06bd 1583 7c3d 1c0d ac3d b410 32bd
00000200: bf2f b4bd 0406 823d fccd ed3c 48a6 c9bc
00000210: 7293 6d3b cd11 f4bc 480f 883d 286b 62bd
00000220: c7ac b23d 9835 1b3d b340 9a3d e4d1 07bd
00000230: 74f3 b13d 846d 43bd 53a3 96bc 9ab3 a0bd
00000240: 5081 39bd 6bfe 4fbd be3d 54bd b8b8 73bd
00000250: 081d 473d c8b8 a63d 177e febc b583 eebc
00000260: 290b 57bd c351 aebd 134d 05bd ef17 b13d
00000270: 86ad b3bd a0b9 adbd 1e5a 2cbd e02e 44bd
00000280: 4813 a43d efb3 0cbd c103 b63c 2b64 7abc
00000290: 3337 01bc 4f47 79bc 8798 dcbc c5ab 633d
000002a0: a5bb 143d c3ad 353d bd35 7bbc c67e c2bc
000002b0: dae6 823d c5c0 783d b420 363d d238 5b3d
000002c0: 477b 643d 16f9 abbc ad7b 6a3d a1fa 7f3d
000002d0: 9e3b b63d 6bf3 72bd 3e15 5d3d dcdd 803d
000002e0: 19e5 043d 0313 7abd 304d 813c d17c 633c
000002f0: c7f4 7d3d 4be1 84bc 6fcd 91bd a082 813d
00000300: e109 5e3d 9d14 d0bc 67aa 173a 963d de3c
00000310: 8b46 85bd eb6b 8abd 064d 773d 1fe3 4b3d
00000320: 0463 0ebc 91fd 7cbe ed34 d03e a2d5 113e
00000330: 577a 673e 4c41 35bd 3aaa 48bd 0b26 d5bd
00000340: 3775 c8bc 2488 613c 67ca 42be 9446 f33d
00000350: 8b2e f13d 6242 433d a8f0 003e f3a9 6a3d
00000360: a3a7 2b3e 6ae2 1d3d 108c 35be 53a0 b23d
00000370: d32b 9ebd 139e 0a3e 8c9d 42bb d4c1 31bd
00000380: ec56 1dbe bf75 a3be b47c c1bd 564a 15be
00000390: 372a b5bd f404 3f3c 1a51 2b3e 9aea 8abc
000003a0: 4d0b 0b3d d6ed 86ba 94a5 2f3d c68d 853e
000003b0: 9f1a 84bd 709f 833c 2649 f13d 5e14 dc3c
000003c0: ddd9 133e c184 d0bc 3b88 66bd cf9c ba3d
000003d0: a3da 70bd d2d4 f9bb 9cc7 293d abf8 fb3d
000003e0: ead5 293e a6c3 853d 72a2 433e 06fa cbbc
000003f0: 38ea 0ebe 8f1b 66bd c5ee 84bd faa3 c0bc

layers.4.bias f4 [3]
-0.0537807 0.02569432 -0.06555731
00000000: 2749 5cbd e57c d23c e942 86bd
