HW3/pushing_residual_dynamics_model.pt (torch, 46871 bytes, 6 tensors)

layers.0.weight f4 [100, 6]
00000000: 5585 edbe 3575 d2be 9310 ba3d 301b 3abd
00000010: 79eb 28bd 6a30 b1be 91fa 733e a5b6 90be
00000020: f638 acbe a748 80be 4bc8 2a3e c00c 8ebe
00000030: 31ca 303e 33a1 de3d 1157 09bd 5476 123e
00000040: e10d 9abe 9a68 8a3e 4e1c d0bd 9ed1 88be
00000050: 8474 c4be 567b b4bc 3fb9 cbbe 54d4 a8be
00000060: f0df 0abd 6608 e6bd f0c5 c63c 34dd 7b3d
00000070: a51b 76be bcb3 003f 5154 47bd 3c4c ccbe
00000080: b8b1 70be edca 8b3d 7095 623d 1398 40bc
00000090: 9f27 62bd 3b8e 993e c8a4 d6be 08ab 5cbe
000000a0: 1d7a a8be 1905 593e 2c9f bbbb 7442 453e
000000b0: cd6e 653e 1fd5 b8bd 5bc3 013e 1bd5 753e
000000c0: 26b0 683e c2f5 4c3d 8e0c 36be 739a f5bd
000000d0: cc83 21bc 4094 abba 41d1 153e 6820 cbbd
000000e0: 6dff 053e 332c 873e 0020 6abe 756d 83be
000000f0: 48ff a8bd 5f62 c73c 4222 49be 43d0 a83c
00000100: 88a8 aabe 42c3 acbd 3dd2 56be 8e5e eabc
00000110: 17e6 1b3d 43a2 34be 4a64 c4be f2f5 653e
00000120: e8b1 eabe d598 f4be c489 10be 7379 8c3c
00000130: 5933 5abd f2e2 79be 682c 5e3e 9d2e 62be
00000140: 8934 c6be 4d88 cb3d c1d8 51be 0af1 85bd
00000150: 7ce5 0c3e 0f45 133e 4e3e b73d 3769 273e
00000160: f572 5bbe 6f8e a2be bbd8 8d3e 4174 27be
00000170: 609d e0bd b0c9 463e 48b2 883e 81ac 7e3e
00000180: d5d3 d0be c20b 80be 1658 11bd d781 8d3e
00000190: 2158 87be b906 ccbd cecf c13e 4dda d5be
000001a0: 21fd 483d 4cad 6dbe aab2 86be 88a5 90be
000001b0: 841d a5be d949 af3d 0555 943e 5489 b2be
000001c0: b913 90be 150b 4abd 9bda bfbe ba81 6ebe
000001d0: 3115 c33e 756d b6bc 194e 89be 956b 883d
000001e0: e51f 903d 35be 94be 41bf 593c 81cf b33e
000001f0: f37e 963c 92ad 01be 1577 933e 897c b6be
00000200: 0653 8dbe 3615 113d 589b 8e3e 99ac d63e
00000210: 5ea6 663e 8cfa 0dbd 14b9 f6bc 5f92 2f3e
00000220: b89a 29be e278 9abe 9530 373e 5178 bdbe
00000230: 76ab 9d3e d7f6 c93d 8d29 cc3e 89fb 22be
00000240: 0694 5dbe d8a9 7f3e 6308 2d3d 1583 9dbd
00000250: ac76 e0bd 7bc6 a7be 48c1 98be 41dd 73be
00000260: 6fad 123e e133 153d 8f96 623e b6ac b4be
00000270: e5d5 94be 5e66 a83e 104b f3bd d052 473e
00000280: 9fc4 ee3e ec6c bd3e ab3b cfbe cb89 a0be
00000290: 05e3 1f3e b73d 49be b1fa 153d d5f7 a73e
000002a0: 5f98 1c3d 7af2 fe3c f515 afbe ac4c 023e
000002b0: 7246 a53e c509 4abe d978 f9bc 8bec 253d
000002c0: e410 b0be 66b6 133e 641c 693e fc2c a93e
000002d0: 4c89 b0be 5d34 f4bd acfe 7fbe 88f8 173e
000002e0: 78cb 61bc 7274 c0be 34df ab3e 3829 dabe
000002f0: e6a9 863e f28c f43c c6d9 6d3e 6263 8c3e
00000300: 3aae 9c3e 6e39 dbbe 7cc6 a23e 270a 943e
00000310: 8b90 90be 4f9b a1bd f022 a93e 53a7 733e
00000320: f6d7 db3d f1aa d6bc 4779 21be 66f7 8fbd
00000330: eceb 943e b323 e03e 6204 afbd c751 87be
00000340: 926b f1be 0c97 53be 4040 153e bf4e d2be
00000350: 5da3 543c dc2b ffbd e2cb 113e 41ad 7ebd
00000360: 59a0 303e bd36 92bd f32f e1bc 6eac 023e
00000370: 3a3c 88bd 08db 8fbd 4262 2e3d 899c efbe
00000380: bc74 d13c 7dd2 1dbd e998 e63c c04d 783e
00000390: 14ba 63bd 4a88 d63b 484c 8bbe 2408 d73d
000003a0: 7f3e 53be 2d82 f63d cc32 c1bc 68dc b9be
000003b0: 8bd7 18be b771 a13e f585 acbd 0a41 cbbe
000003c0: d0d0 1e3e d9ab 753e af97 adbe 01ce 353d
000003d0: 85fb 8b3e 8e6c 40be 3f26 e2be 56a6 00bd
000003e0: 1e06 00be 7b07 8e3a 031f 303e ec5d 923e
000003f0: 61ae acbe 616e 89be fdf6 5abe 944a 9fbe
-0.46390787 -0.41105047 0.090851925 -0.045436084 -0.04124019 -0.3460725 0.23826052 -0.28264347
-0.33637208 -0.2505543 0.16677968 -0.27744102 0.1726463 0.1087059 -0.0335303 0.14302951
-0.30088714 0.2703293 -0.10161649 -0.26722425 -0.38370144 -0.022031467 -0.3978977 -0.32974494
-0.03390497 -0.112320706 0.024264306 0.061490253 -0.24033983 0.5027425 -0.048664395 -0.39901912
-0.23505294 0.068258144 0.055318296 -0.011755007 -0.055213567 0.29991326 -0.41922593 -0.21549618
-0.32905665 0.21193351 -0.005725762 0.19263631 0.22405548 -0.090250246 0.12672178 0.24007075
0.22723445 0.05003906 -0.17778227 -0.119923495 -0.009858083 -0.0013090447 0.14630605 -0.099182904
0.13085718 0.2640091 -0.2286377 -0.25669447 -0.08251816 0.0243389 -0.19641975 0.02060712
-0.33331704 -0.0843568 -0.20978637 -0.02860954 0.038061228 -0.17640023 -0.38357764 0.22457102
-0.45838857 -0.47772852 -0.14115053 0.017147755 -0.053271625 -0.24402979 0.21696627 -0.22088094
-0.38711956 0.09938107 -0.20492841 -0.06540115 0.13759416 0.14381813 0.089474306 0.1634873
-0.21430571 -0.31749293 0.27704415 -0.16352941 -0.10967517 0.19412875 0.26698518 0.24870493
-0.40786615 -0.2500897 -0.035484396 0.27638122 -0.26434425 -0.0996222 0.37853855 -0.41768113
0.049069528 -0.23210639 -0.26308185 -0.2825129 -0.3224908 0.08559007 0.28971115 -0.34870398
-0.28140047 -0.049326975 -0.3747147 -0.23291674 0.38102105 -0.02226899 -0.26817396 0.06661145
0.070373334 -0.29051366 0.013290227 0.3511925 0.018371081 -0.12663868 0.2880179 -0.35641888
-0.27602404 0.03542062 0.27852893 0.41928557 0.22524402 -0.03466277 -0.030117549 0.1714568
-0.16562927 -0.3017035 0.17889626 -0.37005857 0.30794877 0.09861534 0.3987545 -0.15916266
-0.21638498 0.24967134 0.042244326 -0.076910175 -0.10960135 -0.32768616 -0.29834962 -0.2381487
0.14323972 0.03642643 0.22127746 -0.35288018 -0.2906944 0.328906 -0.118795514 0.19465184
0.46634385 0.36997163 -0.4047521 -0.31355128 0.15613945 -0.19652449 0.03661603 0.32806268
0.03823125 0.031121481 -0.3419644 0.1272456 0.32280308 -0.1973029 -0.030453132 0.040508788
-0.34387887 0.14425048 0.22764736 0.33042133 -0.3447975 -0.1192405 -0.24999493 0.14840901
-0.013781421 -0.3758884 0.33568728 -0.42609572 0.26301497 0.029852364 0.23227605 0.27419573
0.30601674 -0.42817253 0.31792057 0.28913996 -0.28235278 -0.07890951 0.33034468 0.23794298
0.10734551 -0.026204558 -0.1576892 -0.070296094 0.29086244 0.43777236 -0.08545758 -0.2642958
-0.47152382 -0.20663089 0.1457529 -0.41075704 0.012978402 -0.124595374 0.14237931 -0.062176947
0.17248668 -0.07139347 -0.027488684 0.12761089 -0.06652112 -0.07024199 0.042574175 -0.46799114
0.025568359 -0.038530815 0.028149085 0.2424841 -0.05559738 0.0065470086 -0.27206635 0.104995996
-0.20629309 0.12036548 -0.023583792 -0.3630097 -0.14925973 0.3153207 -0.08423988 -0.39698058
0.15509343 0.23991336 -0.33904788 0.044385914 0.27340332 -0.1879141 -0.44169804 -0.03140863
-0.12502334 0.001083597 0.1719933 0.28587282 -0.3372679 -0.26842025 -0.21383281 -0.31111586

layers.0.bias f4 [100]
00000000: bb8f b0bd 5070 25bd f8c1 2ebd 7820 11be
00000010: 2e5f 8bbc 94be ca3d efed 88bd d7ed 1f3e
00000020: c37f bcbe cfdf 663e 70e6 dfbe 44cb b8be
00000030: 05cb 95bc 9755 f4be 47aa 613e 23f1 c9be
00000040: 1c92 303e ec90 a7be 52c4 233e 5858 87be
00000050: fb18 5b3d 6b2a b03e 9168 0ebe 76a6 a23e
00000060: 88fc 14be df53 15be 9b68 a7be 3716 cebe
00000070: 35b2 37be 7dfc 373e 6f56 9ebe 8536 663d
00000080: c5a1 5fbd 7005 8b3e 7709 cfbc 9049 a3be
00000090: c1c2 c4be 45a9 abbd 2541 cabe 227a adbd
000000a0: 623f f0be a0fc abbe a91b a63c 9436 a8bc
000000b0: adb3 223d 0259 353e db9e 013e e6a1 143e
000000c0: 3cc4 a33e 0329 d0be 2fe0 5ebe 8152 1abe
000000d0: 1d6f b6be 8fb6 45be dea5 a4be 67fc 49be
000000e0: af31 8cbc 9ce2 693e fcf3 823e 4bbc 0d3e
000000f0: d262 7a3e a329 673e 7dfc 823e 5caf 033e
00000100: 49f1 5ebe 670b 4f3e bfce 95bc 020b 283e
00000110: 8978 183e aa46 b5be 036d d33c b9f2 f73b
00000120: 834b 17be 1fa5 56be 5d14 bf3e 99be 05be
00000130: 23b3 3ebe d511 57be 9eeb 4d3e 4257 e5bd
00000140: be37 9abe 2e37 683e 7c65 04bd 54cc 3e3e
00000150: ed74 093e dde1 843e 8eca 80be 796a 07be
00000160: d57d e7be cbea e7bc 78ea 98be b72c d3be
00000170: 57e2 923d f52c 9e3e 696c b0be 180c b63d
00000180: c77d 25be af21 2fbb 5960 8abe b049 523e
-0.086211644 -0.040390313 -0.04266545 -0.14172542 -0.017013159 0.09899631 -0.06686007 0.15618072
-0.36816224 0.22546314 -0.43730497 -0.3609258 -0.018285284 -0.4772155 0.22037612 -0.39441785
0.17243236 -0.32727754 0.15992859 -0.26434588 0.05349062 0.34407362 -0.13907076 0.31767625
-0.14549458 -0.14582776 -0.32696995 -0.40251324 -0.17939074 0.1796741 -0.3092532 0.056204338
-0.054597635 0.27152586 -0.025273068 -0.3189206 -0.38429835 -0.08381895 -0.39502826 -0.084705606
-0.46923357 -0.33591175 0.020276861 -0.020533837 0.039722133 0.17709735 0.12658255 0.14514884
0.31985652 -0.4065629 -0.21765207 -0.15070535 -0.35631648 -0.19307922 -0.32157797 -0.1972519
-0.017113535 0.22840351 0.2557677 0.1384136 0.2445176 0.22574477 0.25583258 0.12859863
-0.2177173 0.20219193 -0.01828706 0.16410449 0.1488973 -0.35405475 0.025808817 0.0075667766
-0.14774899 -0.20961426 0.37320223 -0.13060988 -0.18623023 -0.21002896 0.20109412 -0.11198284
-0.30120653 0.226773 -0.032323346 0.18632632 0.1342351 0.2595357 -0.25154537 -0.1322421
-0.4521319 -0.0283102 -0.29866385 -0.41245052 0.07172077 0.30893674 -0.3445771 0.088890254
-0.16161261 -0.0026722958 -0.27026632 0.20535922

layers.2.weight f4 [100, 100]
00000000: c172 89bd 0e38 6bbd b82b 06be b2d4 31ba
00000010: bfd8 013c a52c 9cbd 0111 d7bd ea66 c2bd
00000020: 1323 c43c 6b9d c0bd d4b9 d0b8 e7b1 18be
00000030: 9c94 78bd 35b5 80bd 787a 92bd 3e32 06be
00000040: 17a6 553c 683a 09bd 69a7 71bd 4715 e1bd
00000050: 4f01 9ebd 2b97 34bc 4d62 9cbd d487 553c
00000060: 395e 5a3b c89f eabd b735 6abd aeba 1e3c
00000070: e11d f9bd 411d 52bd 1369 61bd 04cf 9ebd
00000080: 3665 13be 51b1 1c3d 6a31 fcba f0ca 16bc
00000090: 573d 403d 2d27 09be cc04 203c 50fd 16be
000000a0: 2ae3 a7bc 3f99 02be d829 e7bd 15f4 17bd
000000b0: eb2e aebc 5b2e 12bd 5a0d 97bd 50e9 373d
000000c0: c0f4 9dbd e89a 17be 558a 4bbd 7aad 0cbe
000000d0: 0fc7 9f3d 1199 cabd 3f1c 4b3d d44e 50bd
000000e0: d35c 96bc 3934 16be b256 5d3a a37b 94bd
000000f0: b3b7 dabc ebb3 bbbd cf24 93bc b8d7 43bc
00000100: c404 a6bd e94f 3a3d 5a38 03be 8418 3a3d
00000110: ead2 3bbd 5fe7 ab3d eb2c 6cbd 6eb6 4fbc
00000120: 1427 83bb 4dfd 84bd 3ae5 e03c 7ee6 66bd
00000130: 5c57 e9bd 1fbe a4bd 3fb4 083d 3ebb 85bd
00000140: 8071 693d a6b7 aebd ae74 6bbd f440 b9bd
00000150: f4fd 0cbe 76ef c3bd b363 d13b 74cc d4bc
00000160: 92c9 eabd 9dcc 02be 80d5 18bd 98a4 4e3d
00000170: 7253 92bd d1f9 13be ff78 cc3b 1fbd 99bb
00000180: 49d1 a9bd 2251 ae3c f4cd 1d3c fd01 bfbd
00000190: ea42 fa3c 570a 473d b2a1 78bc 78a3 ff3c
000001a0: ab2e a4bd e275 a5bc 77ad 0cbe d784 aebd
000001b0: dd66 903d 0c45 1e3d efba b3bc fe6b 82bd
000001c0: e961 903d 0c75 05be fe94 efbd ff6d a43c
000001d0: 33dc 4fbd ba34 b0bd 504b 1e3d 016d 373d
000001e0: 314b f73c 6a1f e6bc d295 04be 5318 4fbc
000001f0: 3d1c 11be c4f6 bfbd 8af6 cabd bf81 22bd
00000200: 3bc3 3f3d 1455 55bd db2c b23d 4a80 f0bb
00000210: 756f f8bd b3e2 bdbd 45c7 97bd 5df6 9abd
00000220: f473 983d 2298 173d b737 7dbc db77 11be
00000230: 1ece 3ebd 2e70 9cbc ad44 2bbd 0f70 a9bd
00000240: 5cae 9bbc 7a77 c7bd 6298 e3bd 1cfb 81bd
00000250: 4c2c e0bb 68f0 1dbc 524f 083d bff4 043d
00000260: dd42 3c3d d523 703d 3927 c2bd d3d2 a4bb
00000270: 666c 94bd 8814 903b 72e2 863c d2d7 0e3d
00000280: 9db8 d3bd 8c24 353b a4b9 ccbd 49ec 8ebd
00000290: b5e5 7fbd 1f41 04be 8ff0 fabd 626a dabc
000002a0: d9bc 4dbd 3d9e 623d 9123 bb3c 6779 90bd
000002b0: bb8b 863c 3175 b6bd 93e5 0abe 33a5 ddbd
000002c0: efd6 d3bd f320 b3bc 76b6 37bd 20aa 07bb
000002d0: 2d53 c13d 4940 94bb 06ed cfbd bad4 4f3c
000002e0: 6445 06be 0982 82bd 3a91 983c acdb 3ebd
000002f0: 5bfb 223d e8b8 92bd ad33 b83b 3d6f dfbd
00000300: 74dd 15be 01bf f63a 16c9 83bd f539 0c3c
00000310: 5786 c3bc bae2 ccbd beee b2bd 1b94 86bc
00000320: cf27 8f3d d591 bd3c 8c22 e8bd 3392 09be
00000330: eddf 26be 2b0b 413c 824b a2bd 5838 c83c
00000340: ddce bc3d c63f 273d 4506 c3bd 3704 6bbd
00000350: 0abf 54bd 06b7 23be 84e4 3ebd d07f 503d
00000360: 767e 49bd 5d76 a2bc 7f03 f0bd 75f4 e1bd
00000370: 49fc f6bc ee11 013d 5655 c7bb 8862 643d
00000380: c9b1 22be 3cec a83d c643 783d 0b6c 653c
00000390: 8000 4d3d ae0a 4ebd e7a0 2cbd a5b7 c7bd
000003a0: d9cf 05be e86e 8cbd b1c1 06be 7bbb e13b
000003b0: 4113 da3c d315 c2bd c001 843c 4539 f4bd
000003c0: 49bb b9bd 4033 353c 9dc1 923d b12b b7bd
000003d0: d491 52bd fa2e 8bbd 69a5 e5bd 1888 003d
000003e0: cc68 72bd c03c 69bd c277 113d 4996 89bd
000003f0: 608c 8f3c a8e2 763d cc9b d4bc a16e a0bd
-0.06711341 -0.057426505 -0.13102615 -0.0006783708 0.007925211 -0.07625703 -0.1050129 -0.094922855
0.023942506 -0.09405025 -9.952826e-05 -0.14911614 -0.0606886 -0.062845625 -0.07152265 -0.13105103
0.013040087 -0.033502966 -0.058997545 -0.109903865 -0.07715093 -0.011022369 -0.07635937 0.013032872
0.0033320321 -0.11456257 -0.057180133 0.009688063 -0.12163902 -0.05129743 -0.055031847 -0.07754329
-0.14394078 0.03825504 -0.0019240801 -0.0092036575 0.0469335 -0.1339385 0.009766769 -0.14745069
-0.020494062 -0.12753771 -0.11287278 -0.03709801 -0.021262607 -0.03568874 -0.073755935 0.04490024
-0.07712698 -0.14805186 -0.04969247 -0.13738051 0.07801639 -0.09892476 0.049587484 -0.050856426
-0.018354809 -0.14668359 0.00084433996 -0.07250144 -0.026698923 -0.09165176 -0.017961888 -0.011953287
-0.08106378 0.045486365 -0.12814465 0.045433536 -0.04585544 0.0839374 -0.057660025 -0.012677772
-0.004002461 -0.06493626 0.027453054 -0.05637216 -0.113936156 -0.08044075 0.03337502 -0.06529854
0.056993008 -0.08531122 -0.05748432 -0.09045592 -0.1376875 -0.09567158 0.006390059 -0.025976397
-0.11464228 -0.12773366 -0.037312984 0.050449938 -0.07144822 -0.14450766 0.00624001 -0.0046917344
-0.08291871 0.021278922 0.009631623 -0.09326551 0.030549485 0.048593845 -0.01517527 0.031205878
-0.08016714 -0.020197812 -0.13738047 -0.08521431 0.070508696 0.038640067 -0.021939723 -0.06368254
0.07049925 -0.13032931 -0.1169834 0.020071981 -0.050747108 -0.08603807 0.038646042 0.04478169
0.030187221 -0.028091151 -0.12947777 -0.012640077 -0.14170928 -0.09373239 -0.09910305 -0.039674517
0.046817046 -0.05208309 0.08699962 -0.007339512 -0.12130634 -0.09271755 -0.074110545 -0.07566521
0.07443991 0.03701032 -0.015455178 -0.14205877 -0.046583287 -0.01909646 -0.04181354 -0.082733266
-0.01900404 -0.09739585 -0.11113049 -0.063467234 -0.006841218 -0.009639837 0.03327877 0.03245997
0.045962203 0.058627922 -0.094801374 -0.005030015 -0.07247238 0.0043969788 0.0164654 0.03487379
-0.103379466 0.0027640192 -0.09996346 -0.069786616 -0.062474925 -0.12915467 -0.12252914 -0.026662055
-0.050228927 0.05532669 0.022844108 -0.07054406 0.01642405 -0.08909071 -0.13564138 -0.10822525
-0.1034373 -0.021866297 -0.044851743 -0.0020700768 0.09439693 -0.004524265 -0.101526305 0.012684995
-0.13112408 -0.063724585 0.018623937 -0.046596214 0.039790493 -0.07164174 0.0056213946 -0.10909889
-0.14635259 0.0018825234 -0.064348385 0.00855874 -0.02386777 -0.10004182 -0.08736943 -0.016428044
0.06990015 0.023140827 -0.11334714 -0.13434677 -0.16296358 0.011782448 -0.07924558 0.02444093
0.092191435 0.040832303 -0.0952268 -0.057377066 -0.05194 -0.15987787 -0.04660465 0.05090314
-0.04919287 -0.01983183 -0.11719417 -0.110329546 -0.030149596 0.03151124 -0.006083171 0.05575803
-0.15888132 0.08248183 0.06061151 0.01400281 0.050049305 -0.050303154 -0.042145636 -0.09751824
-0.13067569 -0.06857091 -0.13159825 0.0068888045 0.02662051 -0.09476819 0.016114116 -0.11924986
-0.09068925 0.011059582 0.07165835 -0.0894388 -0.051408604 -0.067960694 -0.1121319 0.03137979
-0.059181973 -0.0569427 0.0355146 -0.06718118 0.01752299 0.06027475 -0.025953196 -0.07833601

layers.2.bias f4 [100]
00000000: 76e9 55bd d6ab 7cbd 816c cebd a41a 353c
00000010: 778b f9b9 ce9a 3ebd a4d3 503d 2456 243d
00000020: 2631 b63c 1d36 eabd 7931 d8bd 9297 833d
00000030: 8c41 713b 92d6 15be 976e e2bd 92b3 223c
00000040: 1472 c8bd 554f 86bd 9548 3abd 0c25 72bd
00000050: 33f3 2039 3ba6 f73b b257 083d ca8f 81bd
00000060: 1183 10bd 8e9e c3bd 79c2 8bbd 0229 05be
00000070: 429e 023d 2f1b a73d 8aab f6bd bd2d 563d
00000080: 1c1a 8c3c 8784 343d 541a 863c fe4b 8939
00000090: c5e2 e23c 5771 15bd e8a4 d7bc 695b 023d
000000a0: 1376 7bbd b738 d8bd f195 393c 97a3 0abe
000000b0: 4b58 25bc f18f 80bc 1b21 183d 20e7 bbbd
000000c0: ae9c 623d 36ee 12be b05f a1bc 9086 ee3c
000000d0: 0644 fcbd 8bb5 f83c 17a7 6bbd db74 12be
000000e0: 487b 04be 2470 60bd 3d2f 31be 60bb d4bd
000000f0: 9dce 7b3c 80f5 4abd 13a7 42bd 3bf6 60bd
00000100: 8cb8 803b cf4a c13c 7756 cabd a416 89bd
00000110: d2d8 9cbd c023 56b7 459e 93bd cd4c c9bd
00000120: 516c 08bd c3a3 e83c 29dc a2bd efa1 a73c
00000130: f9e0 c33d 36e7 f9bc e6a7 54be 36ea dcbd
00000140: 9b39 04bd 8b0f 64bd 467e 10be 1288 01bd
00000150: 81d5 80bd 3d42 823d 3b15 9f3c 5de6 ec3c
00000160: 69f6 f4bd b1a7 233d 31cb babd 0c9d 14bd
00000170: 04dd 57bc d327 edbc 99ff 483d 2039 88bd
00000180: aa9b ecbd be7e 00bd c403 2f3d f754 bdbd
-0.0522246 -0.061687313 -0.10079289 0.011053715 -0.0004759689 -0.046534352 0.050983086 0.040121213
0.022240233 -0.114361025 -0.10556311 0.06425394 0.003681275 -0.14632633 -0.110562496 0.009930508
-0.09787384 -0.065581 -0.045479376 -0.059117362 0.00015349388 0.007557658 0.033286758 -0.06326254
-0.035281245 -0.09551726 -0.06824202 -0.13003924 0.031889208 0.08159482 -0.12044437 0.052289713
0.017102294 0.0440717 0.016369976 0.00026187295 0.027696023 -0.036485042 -0.02632375 0.031825457
-0.0613919 -0.105576925 0.011327253 -0.13538967 -0.010091851 -0.015693637 0.037140947 -0.09174943
0.055325203 -0.14348683 -0.019698948 0.029116899 -0.12317662 0.030360004 -0.057532396 -0.1430239
-0.12937653 -0.054794446 -0.17303176 -0.103873014 0.015369085 -0.049550533 -0.047522616 -0.054922324
0.0039282497 0.023595242 -0.09879773 -0.066937715 -0.07658543 -1.2763718e-05 -0.07207922 -0.09829102
-0.033306424 0.0283984 -0.079521485 0.020462958 0.095643945 -0.030505758 -0.20767173 -0.1078686
-0.0322815 -0.055678885 -0.1411067 -0.031623907 -0.06290723 0.0636029 0.019419303 0.02891844
-0.119610615 0.039954845 -0.09120787 -0.036282584 -0.013175253 -0.028949654 0.049071882 -0.06651521
-0.11553128 -0.03137087 0.0427282 -0.092447214

layers.4.weight f4 [3, 100]
00000000: df8d 36bd 0c6c 2dbd 8c2b 8d3c 8f33 203d
00000010: 15c7 aa3b 026d 503c 12e1 be3c b0e2 d13c
00000020: 280f a6bb 3ace ecbc d322 ae3d d503 183d
00000030: 640a 0fbd 5882 a6bd 466e c9bc 737b 133d
00000040: 0597 0ebd 53ca a7bb ece0 ee3c 04f3 c7bc
00000050: 8b21 aebd b7c1 1fbd a4e2 dc3c 3756 3f3d
00000060: 51a5 463c fff2 18bc a7e3 fa3d e82e 75bd
00000070: 261c cd3c 41e2 893d 031f 8d3b 8361 173d
00000080: 90ca 3d3d dc2e 65bc 19e8 f73c 8f93 453d
00000090: 5dc7 313d fad8 bf3c 7ed9 703d f241 193d
000000a0: 61af f43d 2229 e13c e5ab a1bc 1f72 9f3c
000000b0: 146e 093d 8fca e1bc ee83 333d 1e75 b2bb
000000c0: 66ef 0f3d 8448 643d a7a0 5d3d 5ea2 253d
000000d0: d647 9ebc 032a 423d b853 263d cafe d43c
000000e0: 36c9 4fbd baa4 553a 4beb 9cbc e703 b93b
000000f0: ed60 d7bc c84a 13bd 41e2 05bd e261 77bc
00000100: d06e 2f3c e74b 363d a749 bc3c dc77 ac3d
00000110: 4893 d03a b2c7 35bb d103 e7bb f8d2 b23d
00000120: 8c02 a93b 2967 463d f078 16bd dadf 313c
00000130: 87fe b13d e4b1 42bd 23dd 09bd d4ea 0a3c
00000140: 738e bcbc a691 233d 0d67 64bd 0ff9 393d
00000150: fabf 733d c58b b03d a42e 27bd 212a 4a3d
00000160: c3c2 a6bc 8cf6 883d 0a33 a13d fff0 b33c
00000170: 265f 943c a45b b8bc fd45 a6bb 7830 473d
00000180: 1328 253d 5506 0a3d 4be1 283b 683c 8fbd
00000190: 6513 6d3c 8280 783c c3a9 af3c b199 2e3b
000001a0: da66 e7bd 39b1 923c d038 15be b4b9 f23c
000001b0: f4af fdbb 9c3c 553d 1279 163b 6706 89bc
000001c0: 4009 20ba a86b 3b3c 9a35 d83c 9778 c13c
000001d0: 2b94 0c3e 9d6a 143e 1158 9abd 9d7d f13c
000001e0: 1fef 833d 785c a23d c8f6 1a3d fc72 cfbd
000001f0: edae 4d3d 1bdf 24bd f238 033d 19ea 92bc
00000200: 57f9 5f3c 36a0 12bd c25f 9ebd ae54 d1bd
00000210: 8d68 97bd a8e5 e7bc 5f43 373d 08e4 c83c
00000220: e8f2 86bd cfdb 0e3d 3835 85bb a8f7 a6bd
00000230: 62c9 e1bb 81b1 bdbd f456 d23d b220 2f3d
00000240: 0c3a c8bd 5b98 873d 435a 7bbc 841e 873d
00000250: d4b7 a03c 306b 12bc f807 0dbe 9b88 173d
00000260: 3001 ba3c cb81 403d ebfd 403d e774 7f3a
00000270: 118f 67bc c30a d4bc 7477 e03d 6af6 07be
00000280: ce34 823d 296e 853d 3495 843d c934 afbc
00000290: 8233 f3ba a641 c9bd a7ab 793c af59 4f3b
000002a0: 90f9 37bd 6343 aebd 6a8b 183d cdd5 803b
000002b0: ba1f 26bd 9afb 8abb 3075 77bd a662 b73c
000002c0: e0c1 bebd 671e d13c b850 843d eb5a bfbd
000002d0: ec49 833d 37ec 78ba ccb1 1b3d fdc8 f53c
000002e0: 256d d53b 3601 8a3d 72b0 083d 3560 ecbc
000002f0: 0e52 00bd 4f96 873d 8fd1 833b 7c8b debc
00000300: b85e 013d 5dba 8b3c 96a0 c5bd 722c 3e3d
00000310: e372 35bd b966 073b f36d f93d 4d7c 2e3d
00000320: 74d0 babd 664d 52bd 5eba fbbc 71dd 5c3d
00000330: be79 3cbc 1d62 39bd c218 203d a3da 09be
00000340: 376a 1b3e 95e2 a83d feec 83bc a5c3 9d3d
00000350: 8648 aa3d 7620 24be 97ab 8fbd 1fb4 88ba
00000360: 2ab0 20be e70c d5bc 3a30 6abc e1e2 233b
00000370: d0b8 64bd 03cf cb3d c2c8 adbc 3593 cfbd
00000380: d1da 933c cf6d cb3c 530c 9ebc 9424 e43c
00000390: af9a 9c3d 4045 87bf 1360 50bd a389 ca3d
000003a0: 245d 263c 8a95 8b3c 8610 533f a383 aa3c
000003b0: b9d3 273e 4e8b d73b 9b60 0b3e 94ba 80bc
000003c0: 6ef2 ef3c bd06 e5bd 9d39 de3d 6812 c9bc
000003d0: 0da4 ce3c 5882 82bd 7974 f4bc e50e 6e3d
000003e0: 40f6 e5bd 56b4 cc3d 9c85 623e c7db 953d
000003f0: 7166 3f3d 773a 94bd de3b 16bd 663b c43d
-0.044568893 -0.04233937 0.017232679 0.03911167 0.0052117207 0.012721302 0.023300681 0.025620788
-0.0050677247 -0.02890693 0.08502736 0.03711303 -0.03492202 -0.0813033 -0.024588715 0.036006402
-0.034811992 -0.0051205545 0.029159985 -0.024407871 -0.085024916 -0.0390031 0.02696354 0.04671308
0.012124375 -0.0093352785 0.122504525 -0.059859186 0.025037836 0.06732608 0.0043066754 0.03695823
0.046335757 -0.013988223 0.03026204 0.048236426 0.04340302 0.023418892 0.058801167 0.037416406
0.11947513 0.027485434 -0.019735286 0.019463597 0.033552244 -0.027562408 0.04382699 -0.0054460904
0.035140418 0.05573322 0.05410829 0.04043805 -0.019321363 0.047403347 0.040607184 0.0260004
-0.050729 0.00081498513 -0.019155165 0.005646217 -0.026291335 -0.03595999 -0.032686476 -0.015099021
0.010707572 0.04450598 0.022984339 0.08421299 0.0015913034 -0.0027737436 -0.0070500155 0.08731645
0.0051577743 0.048438225 -0.03673643 0.010856593 0.08691125 -0.04753293 -0.033658158 0.008478839
-0.023017144 0.039933823 -0.05576234 0.045403536 0.059509255 0.08620409 -0.040815964 0.049356584
-0.020356541 0.0668765 0.07871063 0.021965502 0.018111777 -0.022504635 -0.005074261 0.048630208
0.04032142 0.033697445 0.002576905 -0.069939435 0.014469956 0.015167357 0.021443253 0.00266419
-0.11298914 0.017906772 -0.14572453 0.029629566 -0.0077419225 0.052059755 0.0022960347 -0.016726686
-0.0006104894 0.0114392415 0.026392747 0.023617072 0.13728397 0.14493795 -0.075363286 0.029478842
0.06442093 0.07927793 0.037833005 -0.101293534 0.05021565 -0.040251832 0.03203673 -0.017933892
0.013670287 -0.03579732 -0.07733108 -0.102212295 -0.07392988 -0.02830775 0.044741984 0.024522796
-0.065892994 0.034877595 -0.004065182 -0.081527054 -0.006890462 -0.09262372 0.10270491 0.04275579
-0.097766966 0.066208564 -0.015341344 0.06597617 0.019618906 -0.008936688 -0.13772571 0.03699551
0.022705644 0.04699878 0.047117155 0.0009744898 -0.014133231 -0.025884038 0.10960284 -0.13277593
0.06357728 0.06515152 0.06473771 -0.021387475 -0.0018554779 -0.098269746 0.015238679 0.003163915
-0.044915736 -0.08508947 0.03724233 0.003931737 -0.0405576 -0.004241419 -0.060414493 0.022385906
-0.093143225 0.025527192 0.064607084 -0.09343513 0.06410584 -0.0009495648 0.038011357 0.030003065
0.006513255 0.06738512 0.033371396 -0.028854469 -0.031328253 0.06620466 0.004022784 -0.02716612
0.03158447 0.017056638 -0.0964977 0.046429105 -0.044299018 0.0020660593 0.12179174 0.04259901
-0.091217905 -0.051343344 -0.030728515 0.05392212 -0.011503635 -0.045259584 0.03908611 -0.1346231
0.15177236 0.08246342 -0.016104218 0.07703332 0.08314614 -0.16028008 -0.0701515 -0.0010429657
-0.15692201 -0.026007129 -0.014293725 0.0025007057 -0.055840313 0.09951594 -0.021213893 -0.101354994
0.018048676 0.024832634 -0.019292986 0.027849473 0.07646691 -1.0568008 -0.050872874 0.09889533
0.010154042 0.01703908 0.8244709 0.020814722 0.1638936 0.0065778857 0.13611071 -0.015713967
0.029290404 -0.11182926 0.108508326 -0.02454491 0.02522471 -0.06372517 -0.029840695 0.058119673
-0.11228609 0.09995334 0.2212128 0.0731731 0.046728555 -0.07237714 -0.036678188 0.09581642

layers.4.bias f4 [3]
00000000: 5ce1 4bbd 75c4 993b 674d fa3c
-0.049775466 0.004692609 0.030554486
