HW3/pushing_absolute_dynamics_model.pt (torch, 46871 bytes, 6 tensors)

layers.0.weight f4 [100, 6]
000000 a5 66 c8 3d 87 cf ec 3e fe a2 c3 3e c7 4c 07 3e
       0.09785203 0.4625208 0.3821029 0.13212882
000010 e1 a0 f3 3d cc e5 82 be 85 8e 4f be e6 88 88 be
       0.118959196 -0.25565946 -0.2026921 -0.26666945
000020 cf 59 91 3e 52 57 81 3d 0d 13 5f 3e 23 f0 c7 3d
       0.2838883 0.06315483 0.21784611 0.09762599
000030 52 da ec 3e fd 03 52 3e 00 ae 44 3e 22 a6 ac be
       0.46260315 0.20509334 0.19207 -0.337205
000040 ba da d0 3d 94 b3 34 be 57 dd d8 3e 3f 72 e2 be
       0.10197969 -0.17646629 0.4235637 -0.44227788
000050 17 63 fb bd 9e 2b 15 be 7c af 2a 3e 09 d3 36 3d
       -0.12274759 -0.1456742 0.16668504 0.044634853
000060 ca 70 a5 be 19 2f 25 bf 47 f7 24 be d3 74 a4 3e
       -0.32312614 -0.6452499 -0.16109954 0.3212038
000070 00 25 cc 3d 79 08 26 be f3 47 c7 3d 11 e0 ad bc
       0.09967995 -0.1621417 0.0973052 -0.021225007
000080 68 91 4e 3e 05 5a 8a be 2d 5c e3 3d 8a 1f f8 be
       0.20172656 -0.27021804 0.111015655 -0.48461562
000090 b6 e9 aa be e2 f9 4b be 68 fd b8 3e 1e b5 46 3e
       -0.33381432 -0.19919541 0.36130834 0.19405028
0000a0 5a 8d 3c 3b 5c 9c f5 bd d5 6b 07 3e 31 b0 e8 3e
       0.0028770776 -0.11992714 0.13224728 0.45446923
0000b0 48 6a 0d 3d ff 44 74 be 96 26 04 3d ef f1 1b be
       0.034525186 -0.23854445 0.03226336 -0.15229009
0000c0 49 07 ac be 6c b0 34 be 3c 29 3f 3e dd 1a 89 be
       -0.33599308 -0.17645425 0.18668073 -0.26778308
0000d0 3d 11 52 be 01 0a c4 bc 69 ef 88 be 86 b9 37 bd
       -0.20514388 -0.023930551 -0.26745155 -0.044854663
0000e0 a1 0e a8 be 51 c0 f2 bd dc fb cc be 45 0d a1 be
       -0.3282366 -0.11853088 -0.40035903 -0.31455436
0000f0 e9 e4 d1 3e 29 bc 33 3e 84 27 66 3c 46 fd ce 3c
       0.40994957 0.17552246 0.014047507 0.025267255
000100 4f 73 63 bd 1b f1 be be 19 a0 dd 3d 11 2f 9a 3e
       -0.05552989 -0.37293324 0.10821552 0.30114034
000110 d4 9b 0e be 20 5f e9 3d 7d fe 82 3e 18 7d 42 3e
       -0.13926631 0.11395097 0.25584784 0.18993032
000120 61 f0 c7 3d 13 9f 2f bf 85 f8 3d 3d 00 56 69 be
       0.097626455 -0.68602103 0.046379585 -0.22786713
000130 4d 2f 4c be 31 1e d2 bd 61 a6 b1 bd 75 f5 9b be
       -0.19939919 -0.10259665 -0.086743124 -0.30460706
000140 10 8a 3e be 44 08 ce 3d d9 e4 cf bd c1 85 39 be
       -0.18607354 0.1006017 -0.10151071 -0.1811743
000150 3a fc 27 3e d3 af 0e 3c d3 dc 84 3e dc 68 b3 be
       0.1640481 0.008708912 0.25949726 -0.3504094
000160 98 a3 a3 be 95 96 83 3e a8 ee ab be e4 bf a7 3e
       -0.3196075 0.25700822 -0.33580518 0.32763588
000170 68 c4 08 be 01 da 32 3b 80 ad 1f be 02 93 8f be
       -0.13356173 0.0027290585 -0.15593529 -0.28041846
000180 e0 8d 75 be 47 4f 8d be 46 75 49 3e 9c cc 35 3e
       -0.23979902 -0.27599546 0.19673643 0.17753834
000190 7b 6b 0d be 1e 0b 5c 3e 14 c5 d7 3e 20 61 48 3f
       -0.13810532 0.21488616 0.42142546 0.782732
0001a0 65 b4 c5 3d 7b 40 4c 3a c7 6c 3e 3d 2f 93 8e 3e
       0.09653548 0.0007791591 0.046490457 0.27846667
0001b0 79 a6 c7 bd b0 41 ef be a2 66 d8 be f6 c1 85 be
       -0.09748549 -0.46729803 -0.42265803 -0.26124543
0001c0 e0 3e 6a 3e 9a 59 13 3e d6 a3 c5 3e 37 02 38 3d
       0.22875547 0.14389649 0.3860156 0.044923987
0001d0 06 5a 85 3e 83 5d 5e 3d 6a 99 db bd 43 ff 3b be
       0.26045245 0.0542884 -0.10722621 -0.18359093
0001e0 00 64 ed be 7e 96 3c 3f 51 61 c5 bd 4e f2 37 be
       -0.46365356 0.7366713 -0.09637702 -0.17963526
0001f0 0b 57 8f be 02 88 b4 3e 0f 15 82 be 4b 2c 03 bf
       -0.27996096 0.35260016 -0.2540669 -0.5123946
000200 11 f7 3f be f3 60 ff bc be ca 83 3e cd db e8 be
       -0.18746592 -0.031174159 0.25740618 -0.45480195
000210 12 13 fc bd c9 f9 c9 be cd df 31 be 2e 82 12 bd
       -0.12308325 -0.39448383 -0.1737053 -0.03576868
000220 3d 44 b3 bd ae 01 54 3e 10 41 6b 3e 3e 78 0f bf
       -0.0875325 0.20703766 0.22974038 -0.5604285
000230 b8 e6 c6 be 8c 8d 11 be 3e 87 5f 3e 70 0c 5d be
       -0.388479 -0.14214152 0.21828935 -0.21586776
000240 f8 ce a7 be 92 ca ca bd a9 e9 48 be 98 77 a7 be
       -0.32775092 -0.099019185 -0.19620384 -0.3270843
000250 12 d4 91 3e 3b 75 49 be 66 6a 38 be 98 71 9b be
       0.2848211 -0.19673626 -0.18009338 -0.30360103
000260 0a e0 16 be ee 77 38 3d a2 ab b5 bb bc 76 7d be
       -0.14733902 0.04503625 -0.005544142 -0.24752325
000270 82 72 85 be 8a e3 05 3e 69 f0 fb bc 7a 4b 82 be
       -0.26063925 0.1307508 -0.030754285 -0.2544821
000280 d6 06 54 bd 3b e6 dc be 87 a2 38 3e 29 ac 26 bd
       -0.05176433 -0.43144402 0.1803075 -0.04069153
000290 a7 94 e0 bc db 5e ca 3e 3b 56 8f be f0 83 11 be
       -0.027414633 0.39525494 -0.27995476 -0.14210486
0002a0 ba 4d 0d 3d 42 a1 b6 bb 6e 8d 82 be dd a0 8e 3e
       0.034497954 -0.0055734226 -0.25498527 0.27857104
0002b0 0c b4 b6 3e 14 ef a2 3e 20 8d 8f 3e 0c e1 f9 be
       0.3568424 0.31823027 0.28037357 -0.4880451
0002c0 5e fe 75 bd 24 9d 8f 3e c0 b1 67 be c6 96 b4 be
       -0.060057037 0.28049576 -0.226264 -0.3527128
0002d0 f9 f7 b2 3e 81 b1 bb 3d bf 6d a0 be 7f c0 28 3e
       0.34954813 0.091647156 -0.3133373 0.16479681
0002e0 58 a0 27 3e 42 8b 95 3c 68 ac aa be 89 92 43 be
       0.1636976 0.01825488 -0.3333466 -0.19098867
0002f0 fc 3e 8a 3e 72 96 37 3e 3f bf 4d bd 25 f1 ba bd
       0.27001178 0.17928484 -0.050231215 -0.09128026
000300 2a 13 15 3f 68 39 89 3e 93 08 91 3e 33 cd 83 3d
       0.5823237 0.2680161 0.28326854 0.06435623
000310 00 6e c4 bc 81 4e 18 be ef 60 3d 3e 51 d6 f1 be
       -0.023978233 -0.14873697 0.18494008 -0.47233823
000320 c0 85 65 3e 77 40 b8 be 80 82 9f 3e cc 96 70 3e
       0.22414303 -0.35986683 0.3115425 0.23495024
000330 17 c2 c6 3e 29 65 d9 be fc 51 3a bd 65 01 a6 3d
       0.38819954 -0.42459992 -0.045488343 0.08105735
000340 27 50 91 3e c5 e9 7a be a5 3a bb be f5 c7 67 3e
       0.28381464 -0.24503238 -0.3656818 0.22634871
000350 75 84 ef bd 95 8a 86 be a4 76 e3 be e7 f8 9e be
       -0.11695186 -0.26277605 -0.44426453 -0.31049272
000360 8d 99 ad 3e 5c 0c c8 3e 3a 96 88 3e 5e 8b 33 3e
       0.33906212 0.3907193 0.26677114 0.17533633
000370 a9 63 1c be 71 0e 23 be 65 d3 b0 3c 7b 14 dc 3e
       -0.15272392 -0.15923478 0.021585176 0.42984375
000380 56 91 62 3e b0 8b a7 be 14 ae 23 be e7 9b 87 3e
       0.22125754 -0.3272376 -0.15984374 0.26486132
000390 e5 33 b0 3d 89 ce 10 be 93 71 98 3e 5f 26 52 be
       0.08603648 -0.14141287 0.2977415 -0.2052245
0003a0 e4 14 59 3e 7d 96 7c bc 24 49 26 3c fe 56 f5 be
       0.21199375 -0.015416739 0.010149274 -0.47917932
0003b0 c0 f2 d3 bc 28 86 14 3d 7c 4c 80 3e ed f5 d6 3d
       -0.025872588 0.036260754 0.25058353 0.10496125
0003c0 5c 86 88 be 7f df 0c be 6a 0f 7e be 89 7b ba bc
       -0.26665008 -0.13757132 -0.24810567 -0.022763984
0003d0 c7 2a 97 bc d0 ea 30 be 64 f5 9e be 62 dd 17 3e
       -0.018453015 -0.17277074 -0.31046593 0.14830545
0003e0 ff 21 f1 be 63 91 f5 3d ea 15 cf 3b e3 46 41 be
       -0.4709625 0.11990621 0.006319751 -0.18874697
0003f0 c3 33 c6 3d a4 05 fa 3d e4 2a 8b 3d 94 c0 59 3e
       0.096778415 0.12208107 0.0679529 0.21264869

layers.0.bias f4 [100]
000000 b8 d4 2e bc f4 77 9f 3e 4e 3c f6 bd d9 cd 9a 3d
       -0.010670833 0.31146204 -0.12023221 0.075587936
000010 6a 0c 02 3f b7 4e db be 3f 87 a3 3e 39 b8 84 3e
       0.5080019 -0.42833492 0.31939122 0.259218
000020 1a 74 6b 3e 74 91 bf 3e 9b ef 71 3e 43 fe 89 bc
       0.22993508 0.3741566 0.23626558 -0.016844874
000030 86 bc 54 3e aa 33 e4 be f9 9d da be 45 ee 75 be
       0.20775041 -0.44570667 -0.4269865 -0.24016674
000040 04 cb 4f 3e 80 2b 21 be 21 0f 2d 3e c7 07 95 3e
       0.20292288 -0.1573925 0.16900302 0.29107496
000050 c1 b6 8e be 2b d5 8a 3e fd 76 9f be b0 64 1a be
       -0.27873805 0.2711576 -0.31145468 -0.15077472
000060 1b 2e 4b be 34 53 3f 3d 7a 9d 8b be 0b 3c be be
       -0.19841807 0.046710208 -0.27268583 -0.37155184
000070 42 5a aa 3d ad 87 81 3e 8c 64 8c 3e 9c b2 82 be
       0.083179966 0.25298825 0.2742046 -0.25526893
000080 05 1c 0d be d1 3a 37 3c 43 23 a1 be 53 a7 af 3e
       -0.1378022 0.0111834565 -0.31472215 0.34307346
000090 cc 38 72 be ec b0 dc bd 21 6d ca be 44 01 5c be
       -0.23654479 -0.10775933 -0.39536384 -0.21484858
0000a0 0e 23 61 be 8d c3 71 3e 1e 2d 49 be 46 3c bb 3e
       -0.21986029 0.23609753 -0.19646117 0.36569422
0000b0 5e d3 90 be 19 bc 95 3e 32 8c 78 be fb fc 17 3e
       -0.2828626 0.2924507 -0.2427223 0.14842598
0000c0 7d d4 a5 bd 4a 73 d4 be 9d 75 69 3e 46 1c 82 3e
       -0.080971695 -0.4149421 0.22798772 0.25412196
0000d0 cf c7 ba bc f7 ed 84 be bb c5 cf be e3 50 81 be
       -0.022800354 -0.25962803 -0.40580544 -0.25257024
0000e0 fd 2f af 3d e1 bd a2 bb f9 fb ae be 70 b8 71 be
       0.08554075 -0.004966483 -0.34176615 -0.23605514
0000f0 ea 7b 4f be 52 42 fe 3d 17 27 3b be 76 44 a2 3e
       -0.20262113 0.12414993 -0.1827663 0.31692857
000100 b5 f6 15 be 06 c6 45 3e 09 5f 13 be 2e 08 21 be
       -0.14644893 0.19313821 -0.14391722 -0.15725777
000110 22 bd 29 3b fb b0 9b be 35 4d 8a 3e 10 e2 b2 3e
       0.0025900085 -0.30408463 0.2701203 0.34938097
000120 0b c5 24 3d 0b f4 7f be f2 65 64 be 69 33 81 be
       0.040226977 -0.24995439 -0.22304514 -0.25234535
000130 85 a0 ce be 7f 4c e9 3d bb a2 d0 be d4 77 b6 be
       -0.40356842 0.113915436 -0.40749153 -0.35638297
000140 a0 2e bb 3e fa 6a 5d bd 20 9b f1 be 72 50 8d 3d
       0.3655901 -0.0540571 -0.47188663 0.06900109
000150 b0 7b 3b 3e 4c 56 91 bd cd bb 92 bc d3 cb 61 3e
       0.18308902 -0.07096538 -0.017911816 0.22050409
000160 d4 5e e0 3e 95 13 09 3e 61 58 34 3e 75 73 ba bb
       0.43822348 0.13386376 0.17611839 -0.005690033
000170 06 2d 38 be 56 8a 34 be d3 f1 98 be 9e c8 ad bd
       -0.17985925 -0.17630896 -0.29871997 -0.0848553
000180 fb bf 8b bd fe a9 81 3d 0c bf e6 bd fe 98 f9 3e
       -0.06823727 0.063312516 -0.11266908 0.48749536

layers.2.weight f4 [100, 100]
000000 44 23 8a bd fe 46 a9 bd 9b 87 5e bd 21 dc 00 bd
       -0.06745008 -0.08265494 -0.054328542 -0.03145993
000010 1b 25 00 be f5 45 e4 3c 5f 9f e4 bc 4a 3c 1e be
       -0.12514155 0.02786539 -0.027908025 -0.15452686
000020 6c 8b 9f 3b 0b 5e 20 bd 84 d8 0a be e1 ed 1a be
       0.0048689153 -0.039152186 -0.13559157 -0.15129806
000030 e3 f9 19 be c7 f3 48 bd 2f b6 00 bd 47 f2 86 3c
       -0.1503673 -0.04906061 -0.031423744 0.016472949
000040 d0 21 a3 bd 47 6e 1f be a6 c0 1d be 08 37 0c be
       -0.079654336 -0.15569411 -0.15405521 -0.13692868
000050 ff 4c ff 3c 1e 39 08 be ba 47 bc bc fb 99 dd bc
       0.031164644 -0.13303038 -0.02298342 -0.027050963
000060 00 5d 8c bc f6 75 d7 3c 54 2f 18 bd 16 94 11 be
       -0.01713419 0.026301365 -0.03715451 -0.14216647
000070 84 b1 51 bd 4e a6 4c bd 40 42 45 bd 40 84 2e bb
       -0.051194683 -0.049963288 -0.048158884 -0.002662912
000080 b5 4c 52 bd 62 39 98 3c a9 4b 41 bc 03 64 06 be
       -0.051342685 0.01858205 -0.011797824 -0.13124089
000090 5a 1c d8 3c 49 08 d0 bc 34 d0 e6 bd 0a 56 f3 bd
       0.026380707 -0.025394576 -0.1127018 -0.11881645
0000a0 d3 56 5c bd a7 4d 04 3d 70 93 3b 38 4f c1 94 bd
       -0.05379374 0.032300618 4.4721586e-05 -0.07263433
0000b0 64 b8 12 be e3 28 91 bd 7a ed 5d bd 63 50 f9 bd
       -0.14328152 -0.07087877 -0.054181553 -0.12173536
0000c0 b7 36 ef 3c 8a 9e 98 bd 18 ed 1b bc a3 c0 39 bd
       0.029200895 -0.07452114 -0.009516977 -0.04534973
0000d0 92 01 06 bc cd 81 7a bc 02 73 c9 3b 9a 9b 81 bd
       -0.008179085 -0.015289736 0.006147743 -0.06328507
0000e0 ec c6 1d 39 1b 93 e3 ba 8c f0 ab bd 7e 42 17 be
       0.00015046791 -0.0017362566 -0.0839549 -0.14771459
0000f0 a5 10 9c bd bd 54 21 bb 3c f3 1d be 7b d1 29 bd
       -0.07620362 -0.0024617158 -0.15424818 -0.04145954
000100 bc 4f d1 bd 88 30 f0 bd 15 27 84 bd 06 fc 95 bc
       -0.10220286 -0.117280066 -0.06452767 -0.01830865
000110 ad 94 02 bd 8f 08 0b bd f7 fe 13 bd f2 3c d3 bb
       -0.03188007 -0.03394371 -0.036131825 -0.006446474
000120 7b ae 3d bd 69 00 d6 bd 6d 42 4f bd f3 ab 3a bd
       -0.046308976 -0.10449297 -0.050600458 -0.04557414
000130 cc fc c8 bd 2b 16 ce bc 99 8b 4c 3c a8 6d 62 bd
       -0.09813842 -0.025157055 0.012484455 -0.055280358
000140 b5 f7 00 3d 3a ea 19 3d a2 c6 08 be 93 a4 fc bd
       0.03148623 0.03757689 -0.13357022 -0.123360775
000150 1c 21 93 bd 01 e5 72 bd b3 95 d9 bd f1 7f 8e bd
       -0.071840495 -0.059300426 -0.10624256 -0.06957997
000160 4f ba 7f 3c fd 16 a0 bd 03 34 f4 bd 67 29 a9 bb
       0.015608384 -0.07816885 -0.11923983 -0.0051624062
000170 e0 2c 9c bd af 14 6c bd fb 8c df bd 3b c1 70 bd
       -0.07625747 -0.057636913 -0.10915562 -0.05877803
000180 80 97 f5 bd 4f b7 b9 bd e3 11 fa bd 31 c6 b3 bd
       -0.11991787 -0.090681665 -0.12210443 -0.087780364
000190 d7 15 7f 3d 7f 29 8e bd b9 ff 6b bc 0b 5f 23 bd
       0.062276687 -0.069415085 -0.014404231 -0.039885562
0001a0 3c 15 1a bc c7 4c 61 3d ef 54 89 3d 23 5b ef bd
       -0.009404477 0.05500486 0.06705653 -0.11687305
0001b0 b4 67 df bd c5 77 39 bd 42 d9 2e bd 66 d0 f7 3c
       -0.10908452 -0.045280237 -0.042687662 0.03025074
0001c0 40 2f 0c 3c 65 b6 bb bd 6c c3 da bd 10 c0 83 bd
       0.008556187 -0.09165648 -0.10681805 -0.064331174
0001d0 20 4e 8e 3d e2 50 84 bd 82 ce b4 bd e7 4d ff bd
       0.06948495 -0.0646074 -0.08828451 -0.124660306
0001e0 63 ca 13 be 3f 15 dd 3b 67 46 79 bc f1 00 61 bd
       -0.14432673 0.0067469175 -0.015214539 -0.05493254
0001f0 5f 0b 85 3c fd f3 3f 3b c0 3c 4f 3d 00 0a 92 bd
       0.016240774 0.0029289715 0.050595045 -0.071308136
000200 f3 2c db bd 7f 95 04 3c 9e 1a 6c 3d a2 3f c3 3b
       -0.10701933 0.008092283 0.05764257 0.0059585134
000210 92 79 56 bd aa 05 7b bc 7c ed 11 3d 6a d2 53 bd
       -0.052362032 -0.015321175 0.035626873 -0.05171434
000220 f9 39 1a be 28 08 d7 bd dd 22 0a 3d f3 82 c9 3d
       -0.15061177 -0.104996026 0.033724654 0.0983943
000230 e3 fd 5e 3d d9 fd 7e bd c4 03 d2 bd 47 da b0 bd
       0.054441344 -0.062253807 -0.102546245 -0.08635383
000240 ff f6 1c be e2 e9 88 3d e6 31 ad bb f9 df 8d bd
       -0.15328597 0.066852346 -0.0052854894 -0.06927485
000250 59 64 89 bd d4 17 c0 3d ab 35 6c 3d 84 22 70 bd
       -0.06708593 0.09379545 0.05766837 -0.058626667
000260 76 fc 8d bd b3 4e 94 bd f1 b2 00 3c fa f4 4a bd
       -0.06932919 -0.07241573 0.007855163 -0.049550034
000270 17 47 9b bd c7 ba a9 3c 93 7e 51 3c 31 ce 3c ba
       -0.07581919 0.020718945 0.012786525 -0.0007202356
000280 a2 49 f8 bd e6 ed 43 3d b4 9e e0 bd 64 33 8d bd
       -0.12123419 0.0478343 -0.1096777 -0.068945676
000290 64 c0 76 bd d8 e7 f2 bd 40 ce 1b 3d 52 1e 26 bc
       -0.06024207 -0.11860627 0.038038492 -0.010139065
0002a0 f6 e7 b0 bd 4e 1e 94 3d da 51 f3 bd 48 c4 16 3d
       -0.08637993 0.07232343 -0.11880846 0.036808282
0002b0 6f 43 9d bd 08 b9 8a 3d 5c be e2 bd dd 1a e8 bb
       -0.076788776 0.06773573 -0.110714644 -0.0070832805
0002c0 38 bd 0d be c6 8e e8 bc c7 18 2f 3d 6f a9 c6 bc
       -0.13841712 -0.028388392 0.04274824 -0.024250714
0002d0 f4 de 3b bd 91 c9 18 bd 72 a0 a2 3d f2 18 3e bd
       -0.04586692 -0.037301604 0.07940759 -0.04641051
0002e0 c1 e8 fc bd 70 da c6 3c 95 ad b9 bd 3e c2 4f 3c
       -0.12349082 0.024274081 -0.09066311 0.012680588
0002f0 5a 83 e9 bb da c7 e6 3c d0 ee ee 3c 14 c6 bb bc
       -0.007126254 0.028171469 0.029166609 -0.0229216
000300 31 c7 a4 bd fe c7 27 3b 0b 33 db bd a2 e7 89 bd
       -0.08045805 0.0025601382 -0.10703095 -0.067336336
000310 a3 7c f9 bd a8 15 8d bd d9 97 fd 3b 00 61 b2 bd
       -0.12181976 -0.06888896 0.007739049 -0.087099075
000320 6f f4 52 3d de 42 35 bc 6a d4 8f bd 3b 81 2b 3d
       0.05150264 -0.011063306 -0.07022937 0.04187129
000330 34 65 16 be 5f 32 03 3d 17 52 17 3d a0 e1 42 bc
       -0.14687043 0.03203046 0.03694352 -0.0118946135
000340 5c 09 40 bd f2 31 ca bd ae b5 6a bd ad 0b 6e bc
       -0.046883926 -0.098728076 -0.05730217 -0.014529151
000350 8f 0c e6 bd 64 6d 98 bd 2a c2 98 39 8f d9 82 bd
       -0.11232864 -0.074427396 0.00029136363 -0.06389152
000360 c7 36 82 bc d1 2e d8 3d c4 72 98 bd 52 5f ae bd
       -0.01589526 0.105558045 -0.07443765 -0.08514275
000370 f1 c4 cf be 9c 4e cb bd 67 10 87 3b e2 88 a7 bc
       -0.40579942 -0.09927103 0.0041218284 -0.020451013
000380 b2 c8 4f 3c f0 cb b7 bd 13 43 14 bd 3a 0a ab bd
       0.012682127 -0.08974445 -0.03619678 -0.0835156
000390 61 7c 4e 3d cc 3f 50 bc f6 73 e0 3d 23 01 f8 bc
       0.050411586 -0.012710523 0.10959618 -0.03027398
0003a0 81 fc d3 3d 54 e0 57 bd 4c d7 87 3c 7d e4 ee bd
       0.10350896 -0.05270417 0.016582154 -0.116646744
0003b0 f1 a8 1a 3d 65 60 ea bd 84 17 f2 3a 5d 17 d2 bd
       0.03775877 -0.11444167 0.0018470143 -0.102583624
0003c0 e7 1c 92 bd 30 4b f2 bd fe f4 86 3d 69 9b 7f bd
       -0.07134419 -0.11830747 0.06589697 -0.06240407
0003d0 d9 4e d1 3c 31 8d e1 3d 6f 58 c8 3e 8f 72 b1 bd
       0.025550293 0.11013258 0.3912997 -0.086644284
0003e0 7a 51 f5 3d bc 42 03 bc a1 a7 1e 3d d6 e3 ff bd
       0.11978431 -0.008011516 0.038734082 -0.12494628
0003f0 a0 36 1d bd 0b fa cb 3d 0e 27 1f bd 17 b3 1b 3c
       -0.038382173 0.09959801 -0.038855605 0.009503148

layers.2.bias f4 [100]
000000 d2 6b 12 3d 71 e5 57 bd 55 f5 7d 3d c0 ef f1 bd
       0.035747357 -0.052709047 0.062001545 -0.11813307
000010 f0 7c ee bd c5 fd 1b be 60 41 4c bd 81 c2 82 bd
       -0.11644924 -0.15233524 -0.049867034 -0.06384755
000020 3a b4 e2 bd a0 89 ad 3d 8d 06 0b bc 39 f8 82 bc
       -0.11069532 0.084735155 -0.008485449 -0.015987502
000030 c5 23 21 be 24 29 d1 bd e4 1f 66 bb 7c 71 45 3d
       -0.15736301 -0.10212925 -0.0035114223 0.04820393
000040 75 e1 36 bc cd 59 fa bd 60 70 3c bd ec 8a 08 be
       -0.011162152 -0.122241594 -0.046005607 -0.13334244
000050 8f aa 12 be c9 77 e5 bd 08 04 c1 bd ae 6f 7b 3d
       -0.14322875 -0.11204488 -0.09424597 0.061385803
000060 8b 42 a4 3d ae 3a e9 bd 07 18 39 bd de 1e 9b bc
       0.080205046 -0.113881454 -0.04518893 -0.018935617
000070 c5 4f b1 3d e5 7f 64 bd e9 a4 c2 3d b1 b6 bc 3d
       0.08657793 -0.055786032 0.0950411 0.09214533
000080 5d 84 e8 bd 22 e1 e8 3d 61 93 85 bc 46 0c 04 be
       -0.11353371 0.11371066 -0.016305627 -0.12895307
000090 1c 22 6a bd e9 e8 0a be f5 34 94 bd 6d c7 c9 bd
       -0.057161435 -0.1356541 -0.07236663 -0.098524906
0000a0 03 c9 19 3d 65 e7 48 bd 1a 3f cc bd 7e b5 a5 39
       0.037545215 -0.0490488 -0.09972973 0.00031606475
0000b0 d7 af 92 bb d8 3b 30 bc c4 6f 8e bd 79 dd 19 bd
       -0.004476528 -0.010756455 -0.06954911 -0.03756473
0000c0 d2 30 a1 bd 54 d9 bb bd 49 2c df bd 85 ac d6 3b
       -0.0787064 -0.091723114 -0.108971186 0.0065513276
0000d0 43 a7 0c be 63 a0 39 bd 1e 1b 8d bd 4a 65 50 3b
       -0.1373568 -0.045318972 -0.06889938 0.0031798654
0000e0 00 a6 f2 bc dd 67 81 3d 67 3a c2 3b 53 c3 be 3d
       -0.02962017 0.063186385 0.0059273723 0.09314599
0000f0 ba 81 af 3b 23 82 87 bd c5 24 ae bd 52 8e c5 bd
       0.005356041 -0.066166185 -0.08503107 -0.09646286
000100 06 f4 5c 3d 49 e1 96 3d e7 4d 84 bd c3 ff c0 bd
       0.053943656 0.073671885 -0.06460171 -0.09423783
000110 43 52 c9 bb 15 8b c2 3d 33 fc c5 bd 3f 94 ac 3d
       -0.0061438396 0.09499184 -0.09667244 0.08426713
000120 d5 15 e2 bd 55 90 7b bd 41 52 f9 3c 62 08 ac bd
       -0.110393204 -0.061416943 0.03043473 -0.084000364
000130 20 ae a9 3d e6 6c b5 3c 1e 22 ba 3d 8f 8c af bd
       0.08285165 0.022146653 0.090885386 -0.08571731
000140 83 b9 f4 3c 58 33 91 3d fa 6a 38 3d 97 49 55 bd
       0.029873615 0.07089871 0.045023896 -0.052072134
000150 49 3e 4a 3d 2e 70 17 be 99 6a aa bd 8a 69 ba bd
       0.049375806 -0.14788887 -0.08321113 -0.09102161
000160 0b 1e ff bc 06 a8 e5 bc ce d8 09 bd 94 a1 17 be
       -0.031142255 -0.028034221 -0.033654027 -0.14807731
000170 b4 1e 8a 3c 82 8e 8d bb 0c bf a3 3c f5 31 97 bd
       0.016860344 -0.004319967 0.01998856 -0.073825754
000180 a3 88 bc bd 48 b8 d0 3c 37 7d 0f bd cc 3b 0d be
       -0.09205749 0.025478497 -0.035031524 -0.13792342

layers.4.weight f4 [3, 100]
000000 84 8e 44 3c 75 49 0f bd 25 b7 67 3d 25 69 58 bd
       0.011996869 -0.034982163 0.056571145 -0.05283465
000010 1e 74 f0 3a e1 ff 94 3c 59 d9 a6 bc b3 c9 71 bd
       0.0018345152 0.018188419 -0.020367311 -0.059030246
000020 5d 48 a3 3c f1 ed 3a 3d 29 fe e1 3b c7 31 0a 3e
       0.019931966 0.045637075 0.0068967533 0.13495551
000030 e7 f0 b8 3c b6 c4 c2 3c 76 24 6d bc 01 60 d5 bb
       0.022575809 0.02377544 -0.014474025 -0.0065116887
000040 44 ad 11 bd 0a 19 2b 3d bb b3 03 bb b1 0f c9 3c
       -0.03556563 0.041771926 -0.0020096141 0.024543615
000050 fe b8 20 3d dd 82 1a bd 03 c3 53 3d a8 26 16 3d
       0.039238922 -0.037722457 0.05169965 0.03665796
000060 72 23 8b 3d 9a ca 68 ba 66 1e 4c 3d fe a4 9a 3d
       0.0679387 -0.00088802876 0.049833678 0.07551001
000070 09 ca d6 3d cb 38 e4 3c db aa f5 3d 8a f5 be 3d
       0.10487754 0.027859112 0.11995479 0.093241766
000080 7b c5 8a 3d 9d 83 3f 3d cc ba 76 3d e5 67 1f bd
       0.06775948 0.046756376 0.060236737 -0.03891744
000090 96 24 b6 3b 02 a2 e7 bc 8d f3 94 3d 94 d8 09 3d
       0.0055585606 -0.028275494 0.07273016 0.03365381
0000a0 99 4a 0e 3d fe df b7 3d 99 fb c0 3c 53 51 32 3d
       0.03473911 0.0897827 0.023557471 0.043534588
0000b0 de 10 b2 3a a1 59 56 3c b6 0b 5d bc 92 44 ef 3c
       0.0013585349 0.013082893 -0.013491562 0.029207502
0000c0 84 7c 1e bd 8e 12 10 bc f0 2f 7a bc 4d 82 24 3c
       -0.038692966 -0.008793486 -0.015270218 0.010040832
0000d0 d9 16 4d 3c b3 c9 97 3c 39 3f 33 bc 56 1f 9d 3c
       0.012517654 0.018528795 -0.010940366 0.019179981
0000e0 dc 48 99 bc 1d d4 d4 3d 5f 2a 99 bd 14 7d 12 3d
       -0.0187115 0.1039202 -0.07478785 0.035763815
0000f0 a2 32 12 bd 08 c4 2f 3d ae 91 24 bc 73 6f 6b 3c
       -0.03569282 0.04291156 -0.010044498 0.014369833
000100 1a b6 94 3d 04 57 aa 3c 6b 0e 5f bd 67 ab 95 bd
       0.072612956 0.020793445 -0.05445711 -0.07308083
000110 9d 6a eb bc 2c 84 5c 3d 82 59 98 3b 47 92 b7 3d
       -0.02873736 0.053836986 0.004649342 0.08963447
000120 80 70 df bc cc d0 48 bc 43 6f 6b bb c0 24 0b bd
       -0.027275324 -0.012256812 -0.0035924471 -0.033970594
000130 b0 c1 16 3d 90 ed c8 3c 2a 46 81 3d 03 a5 5d 3d
       0.03680581 0.024527341 0.06312211 0.054112446
000140 dd d2 c0 3c 3e a8 a4 bb 00 17 3b 3d 51 d9 0f bd
       0.023538047 -0.005024939 0.04567623 -0.03511936
000150 b5 10 0c bc 6e c3 e7 bd e6 36 a4 bc 50 d0 c4 bd
       -0.008548905 -0.11316572 -0.020045709 -0.09610045
000160 a7 3e 02 3d a8 e5 b4 bc 42 b9 71 3d 38 5a d9 3c
       0.03179803 -0.022082165 0.059014566 0.026532277
000170 ee 6a 8d bc 13 26 7a 3d ec 70 3e 3d ba fd 39 bc
       -0.017262902 0.061071467 0.04649441 -0.011351997
000180 5d c4 72 3d d1 51 55 3d 90 6e 63 bd 4f d9 57 3d
       0.059269298 0.05207998 -0.055525362 0.052697476
000190 8d 0d 1a 3e b6 d4 aa 3b fc 7b 0d bd e2 1e b1 bd
       0.15044232 0.0052133454 -0.03454207 -0.086484686
0001a0 02 fd c9 3d dc 01 51 3d 19 29 0c bd 4d 19 ca 3c
       0.098627105 0.051027164 -0.03421888 0.024670267
0001b0 c5 81 9c 3d 8d 93 1f 3d bf 3d 0e 3d 67 ae 01 3e
       0.07641939 0.038959075 0.034726854 0.12664185
0001c0 1b 3e af bd 36 ce 19 3d 23 16 8c bc b7 dc e0 3c
       -0.085567676 0.037550174 -0.0171004 0.027448995
0001d0 ed 47 ee 3d 08 9c 28 bd 8d 6c a9 3a 0c b3 fd ba
       0.116348125 -0.041164428 0.0012926027 -0.0019355728
0001e0 ad e5 a8 ba cb 20 ae 3d 87 ee 37 3d be 9a 2b bd
       -0.0012885832 0.085023485 0.04490521 -0.04189562
0001f0 85 2a 91 bd 58 db fc bb e4 6d 4b bd 78 a2 41 3c
       -0.07088188 -0.0077165775 -0.049665347 0.011818521
000200 db 5c 9c bd 55 fa aa 3d 58 9f ea bc 7f ef 04 3d
       -0.07634898 0.08348528 -0.028640434 0.032454964
000210 ff 40 bf bc b0 5c 84 bd 7f 19 ea bc 5e c1 8a bb
       -0.023346422 -0.06462991 -0.02857661 -0.004234477
000220 b6 db 9f 3c a9 50 eb 3d e7 83 11 3c 6d b9 76 bc
       0.019513946 0.11489994 0.008881546 -0.015058857
000230 b1 85 fe 3d 9d 4a a5 bd b0 af 1c 3c 60 3f 1e bc
       0.12427843 -0.08070872 0.009563372 -0.009658664
000240 c4 61 98 3c 61 9c af 3d 72 6c 90 3c 46 09 d6 3d
       0.018601306 0.08574749 0.017629836 0.104509875
000250 70 d3 4d 3d 6c 47 07 3e b3 07 77 bb 2e 4a 9d 3d
       0.05025047 0.13210839 -0.0037693798 0.07680164
000260 6a b1 f9 3c 00 2c 82 bc e2 6b fc bc 7f 5e b8 3d
       0.030480105 -0.015890121 -0.030813161 0.09002399
000270 57 90 e2 bc 8a d7 22 bd 67 ac bf 3a 5e c0 0b 3d
       -0.027656717 -0.039756335 0.0014623523 0.034119003
000280 c8 7c dc 3c 21 0e 15 3d 84 4d a5 3d f2 1e d5 bb
       0.02691497 0.036390428 0.080714256 -0.006503933
000290 6d 6b 1b bd 72 53 80 bd 39 5e a8 bc ad db af bd
       -0.037944246 -0.06265916 -0.020552741 -0.08586822
0002a0 c5 c8 96 3d 76 37 28 3d 8f 80 9e 3d f8 f4 a8 3d
       0.073625125 0.041068517 0.07739364 0.08249849
0002b0 d8 1b df 3d 72 34 f5 3d 33 07 18 3b f5 71 fc bc
       0.10893983 0.11972894 0.002319765 -0.030816058
0002c0 51 90 c2 3d be 3d 15 bd 22 ed d4 3c 31 be 96 3d
       0.095001824 -0.036435835 0.02599198 0.07360495
0002d0 02 72 0b bb 1a 01 03 bd 65 22 c6 3d 57 ec 4d bc
       -0.002127767 -0.031983472 0.09674529 -0.012568555
0002e0 71 8b 08 3d bf df 52 3a 8c 21 18 3e ed ff 29 bd
       0.033336107 0.0008044205 0.14856547 -0.041503835
0002f0 7a e9 95 3d 16 97 38 3d c1 96 56 3d 74 0e e7 bd
       0.07319923 0.04506596 0.052389864 -0.112820536
000300 aa 43 e7 3d b1 8c 4d bd 32 f3 fe 3d 16 b5 af 3d
       0.11292203 -0.050183002 0.124487296 0.08579461
000310 5a 10 f8 3c bb da 0a 3d d7 db 71 bd 79 a4 34 3c
       0.030281235 0.033900004 -0.059047546 0.011025541
000320 92 54 91 3c f5 93 39 3e bd 4e 07 be a0 7d 01 bd
       0.017740522 0.18122847 -0.1321363 -0.031613946
000330 fa b0 77 3c bd 14 c9 3d 99 6a a0 3d 14 4b cf 3e
       0.015117878 0.09818409 0.07832832 0.40486968
000340 dd 18 1b 3e ad 48 1c bc 6d cd f3 3d 76 6e 34 bc
       0.15146203 -0.009538812 0.11904416 -0.011012664
000350 f7 52 1e 3e c3 49 30 3d c1 8c cd 3d ea 2a e0 3d
       0.15461336 0.043039095 0.10036612 0.10945685
000360 df 89 5e 3d 99 ee f4 3c 88 31 8a 3d dc 11 b7 3d
       0.054330703 0.029898928 0.067477286 0.08938953
000370 55 17 bc 3d 38 5a 36 3d ea 1f de 3d 75 c1 97 3d
       0.09184138 0.044519633 0.10845931 0.07409946
000380 c6 2c c7 bc 36 3d 09 3e ba b4 13 3e 85 e8 0a 3e
       -0.024313342 0.13402256 0.1442441 0.13565262
000390 88 80 83 bd a1 cb b3 3c cb ee f9 bd c6 84 05 be
       -0.06421 0.021947684 -0.12203749 -0.1303893
0003a0 78 17 ec 3c 43 1e f6 3d b0 e6 e4 bc fa 93 bb 3d
       0.028819785 0.12017491 -0.027942032 0.09159084
0003b0 68 5d da 3d c9 3d 02 3d 0d 2e b9 bd 84 3c bb 3d
       0.10662347 0.031797204 -0.090419866 0.09142402
0003c0 80 ce d5 bd 44 18 a8 3d 4d b0 4d 3d be a0 25 be
       -0.104397774 0.08207753 0.05021696 -0.161746
0003d0 b9 80 e0 3d ce 26 2b 3c 67 fb 52 3c 8e 4e be 3d
       0.10962052 0.0104462635 0.012877322 0.09292327
0003e0 e1 aa ba 3d 55 a3 ef 3c 4c 31 c1 3d 60 c8 51 be
       0.09114624 0.029252687 0.09433231 -0.20486593
0003f0 95 b8 33 3e 4d 8a d8 3c 3e b8 9d 3e f6 92 e1 3c
       0.17550881 0.026433134 0.30804628 0.027535897

layers.4.bias f4 [3]
000000 b6 1a 0c 3e 18 0c ab bc 2f 37 21 bd
       0.13682064 -0.02087979 -0.039359268
